results/rnn_tc/rnn_tc_50d.11160425.pt (torch_old, 214316 bytes, 6 tensors)

weight_ih_l0 f4 [200, 50]
000000 ef 59 a6 3c 4f ab d7 bc a0 66 94 bd 52 08 02 bd
       0.020306556 -0.026326803 -0.07246137 -0.031746216
000010 ff f5 4e bd 82 0f 9d 3d 71 0b 19 3c cd c3 c4 bc
       -0.05052757 0.076689735 0.009341107 -0.024019146
000020 98 31 05 3d a6 b2 94 bd 4f 69 5a bc 5a f7 cf bb
       0.032518 -0.07260637 -0.013330772 -0.0063466253
000030 33 b4 67 bc 58 6f 49 3d f2 a9 81 bd b9 02 72 3d
       -0.014142084 0.04917845 -0.063312426 0.059084628
000040 31 5c 08 3d 80 03 5d 3d 85 67 db bc b0 f6 91 bd
       0.033291046 0.053958416 -0.02678276 -0.0712713
000050 87 53 96 3c be 3b 03 3d 04 2a 6e bd 28 ed fa 3c
       0.018350376 0.032039396 -0.058145538 0.030630663
000060 2c 04 85 bd b6 0d 69 3d bc d1 89 bd 80 a9 75 3d
       -0.06494936 0.05689784 -0.06729457 0.0599761
000070 8a 87 9e 3c c8 ba 3d 3d 00 76 7a 3d f6 1d 45 3d
       0.01935174 0.046320707 0.06114769 0.048124276
000080 ec 5b 12 bd 91 3c 36 bd fe db a6 b8 60 f8 8c bd
       -0.035732195 -0.044491354 -7.9564736e-05 -0.06883311
000090 34 82 9c 3c 4e d7 ed 3a e7 b1 48 bc b5 07 32 3d
       0.019105054 0.0018145831 -0.0122494465 0.04346438
0000a0 36 38 b0 bd 5e 89 a3 bd f9 8d c5 bc a7 a8 06 bd
       -0.086044714 -0.07985185 -0.02411555 -0.032875683
0000b0 dd 1f 6e bd 94 4e 34 3d 31 c3 f8 3b 99 3d 2e 3b
       -0.058135856 0.04402025 0.007591628 0.0026587008
0000c0 0e 1f 06 3c 37 d0 f3 3c aa 3a 2b 3d d7 f3 ee bc
       0.008186115 0.02976237 0.041803993 -0.029169006
0000d0 47 1f 10 3d 80 1d 16 3d 35 26 26 3d 60 2a 18 bc
       0.03518608 0.036649227 0.04056378 -0.009287447
0000e0 9f 83 55 bd e3 36 83 3d 79 44 19 3c 88 ea e5 3b
       -0.052127477 0.06406953 0.009354704 0.0070164837
0000f0 02 27 29 3d d1 80 84 3d 84 a9 4d 3d 05 ee 8a bc
       0.041296966 0.06469882 0.05021049 -0.0169592
000100 df 5a c8 3c b4 e9 9e bc b4 2f 65 3d 1d c1 51 bd
       0.024457393 -0.019398548 0.055953696 -0.051209558
000110 6f 27 1a bd 5d 5e 11 bd 85 81 5b bd 99 c0 91 3a
       -0.037635263 -0.035490382 -0.053590316 0.0011120021
000120 24 10 01 bd 73 ee 0b 3b 2e 3e 18 bc dc c0 83 3c
       -0.031509534 0.0021351844 -0.009292169 0.016083173
000130 6f 2b 2a 3d a4 13 58 bd 49 35 aa bc 64 9c 88 bc
       0.041545328 -0.052753106 -0.020777361 -0.016676135
000140 a3 ff 0c 3d a9 86 87 bc 61 18 bb bc 25 9a 43 bd
       0.03442348 -0.016543703 -0.022838773 -0.047754426
000150 c1 0d 8d 3d 4e 33 dc bc 06 77 78 bd 61 16 6b 3d
       0.06887389 -0.026879933 -0.060660385 0.05739439
000160 7a 8b 5b bd 9c ac c6 3b 4e c3 6c bd 35 58 7d 3d
       -0.053599812 0.006063057 -0.057803445 0.0618517
000170 10 c4 86 3d 30 a9 4c bd 24 df 92 3c dd dc 00 bc
       0.06580365 -0.049966037 0.017928667 -0.007865158
000180 73 ab 95 bc 67 54 fb 3c 86 4f 1c bd f6 5a 59 bd
       -0.01827023 0.030679895 -0.038161777 -0.053065263
000190 0e 5b 1d bd 49 6d ad 3d 6a d8 80 bd 45 48 9c 3b
       -0.038416915 0.0846811 -0.06291278 0.0047693574
0001a0 ed bf 33 bd 3a 61 04 bd 8c 09 50 3d 97 32 6f 3d
       -0.043884207 -0.032319285 0.050790355 0.058397856
0001b0 3d 29 3a bd 8e 54 2d bd 16 c3 45 bd e1 b1 a3 bc
       -0.045449484 -0.042316966 -0.04828175 -0.01998228
0001c0 90 85 62 3c a4 c4 27 3d e6 b5 4b 3c d5 0d 00 3a
       0.013825789 0.040959015 0.012433505 0.00048848736
0001d0 cf dd d7 b9 ad 8d 71 3d ff 28 9a 3c 8b 83 1c bc
       -0.00041173256 0.058973003 0.018818377 -0.009552847
0001e0 86 09 f8 bc 4b ff 87 3d db 25 e7 3b 65 eb 0d 3d
       -0.030277979 0.0664049 0.0070540733 0.034648318
0001f0 56 7b ff 3c d1 37 90 bd 0c 25 db 3c 78 02 0e 3d
       0.03118674 -0.07041896 0.026751064 0.034670323
000200 34 77 d9 bc d2 e8 d7 bc 4c 68 2c bd ac 63 34 bd
       -0.026546098 -0.026356135 -0.042091653 -0.044040367
000210 28 3f 07 bc 70 b1 d7 b9 0a f8 a8 bb db 53 2a bd
       -0.008254804 -0.00041140197 -0.0051565217 -0.041583877
000220 d9 73 7b bd 94 bd c4 3c 7d df 21 3d bf dc f7 3b
       -0.061389778 0.02401618 0.039519776 0.007564157
000230 92 8b 3c 3c 17 ad 4f bc d0 29 50 3d 3c d9 85 3d
       0.0115078855 -0.012675545 0.050821126 0.06535575
000240 80 8d ed 3c 24 fe 04 3d f3 b1 bc 3c 0b e3 3b 3d
       0.028998137 0.03246893 0.023034072 0.045870822
000250 f6 6c 59 bc f1 62 94 3d 39 75 0d 3c 66 8c a1 bc
       -0.013270607 0.07245434 0.008633905 -0.019720268
000260 f6 d7 28 bd fe 04 5d 3d f5 8c 7a 3d 7c d4 9e 3d
       -0.04122158 0.05395984 0.061169583 0.07755372
000270 23 aa 2c bd ae f5 cc 3b 1e 19 1b bc a1 47 79 bc
       -0.042154443 0.0062548732 -0.009466438 -0.015214832
000280 55 4b 30 bd 5e 8a f3 3a a5 6c bd 3c 7a a6 69 bd
       -0.043040592 0.0018580665 0.023123095 -0.05704353
000290 e4 fe 4b bd 2b 13 e5 bc 3c a4 ec 3b 26 7b 29 3c
       -0.04980363 -0.027963242 0.0072217267 0.010344302
0002a0 7b 0a c5 3c 92 e0 42 bd 7a 97 76 bc 53 8d 4f bc
       0.024052849 -0.04757745 -0.015050763 -0.012667972
0002b0 9a 7f 63 3d 8f c3 8b bc f5 91 14 bc 69 b9 25 3d
       0.055541612 -0.017061023 -0.009068002 0.040460024
0002c0 16 36 69 3d 27 13 88 bd 88 5f 96 3b f3 b3 66 bd
       0.056936346 -0.06644278 0.004589025 -0.056323957
0002d0 15 3f 90 3d 21 e1 58 3d 4c bb 84 bc ad 0b 60 3d
       0.07043282 0.052949075 -0.016202591 0.054698635
0002e0 91 94 ef 3c c9 1b 8b bd 86 7f 59 3d f5 b4 63 bc
       0.029245647 -0.06792409 0.05310013 -0.013898124
0002f0 4c f3 5a bd fc 14 3f bd 58 ac 4b 3d ed 47 0e 3d
       -0.053454682 -0.04665087 0.049724907 0.034736563
000300 0b 62 59 bd 4c ec 88 3d f0 78 8d bc e2 51 25 3b
       -0.053072017 0.06685695 -0.017269582 0.0025225808
000310 86 4a 11 3d a9 19 c8 3c 41 98 42 bd ce 1d 6c 3d
       0.03547146 0.024426298 -0.047508482 0.05764561
000320 98 7f 4a 3c 13 de e6 3c 2b 73 35 3d ed 58 98 3d
       0.012359522 0.028182065 0.044299286 0.07438836
000330 70 03 aa bb 7f fd 68 3d 4a 60 7e 3d 22 fa 3b 3d
       -0.005188398 0.056882378 0.062103547 0.045892842
000340 3e 5c 17 bd 78 74 fb 3c cf 61 66 bd 54 6f a9 bd
       -0.036953203 0.030695185 -0.05624562 -0.08273187
000350 df 7c 4a 3d f0 ef c0 bc 94 b4 8e bc a5 fd 83 bd
       0.049435493 -0.023551911 -0.01742009 -0.06444863
000360 70 b4 66 3d 99 42 1e 3d c5 37 15 3c 9b c5 09 3c
       0.056324422 0.03863773 0.009107535 0.008408929
000370 94 ee b2 bc 17 64 16 3d a5 b6 6c 3d 1f dc 57 bd
       -0.021842279 0.036716547 0.05779137 -0.05270016
000380 17 dc 81 3d 67 46 ce 3c 6e 5a 5c 3d 37 a6 c2 3d
       0.06340807 0.025180055 0.053797178 0.09504359
000390 a0 c6 65 bd e9 2f 69 3c 30 7f 20 bd bf b0 23 3d
       -0.056097627 0.014232614 -0.039183795 0.03996348
0003a0 8c 59 97 bd 67 4b 84 3c 91 5b 88 bd 46 b8 85 bd
       -0.073901266 0.016149236 -0.0665809 -0.06529288
0003b0 80 97 4a bd 3a 05 05 bc 93 c1 9c bd 49 30 1e 3d
       -0.049460888 -0.008118922 -0.07654109 0.038620267
0003c0 77 da bc 3c 05 78 1e bb cd 32 1d 3d 6b 44 00 bc
       0.02305339 -0.0024180424 0.038378526 -0.007828812
0003d0 79 0c 85 bd 4e 30 bc 3c 5e 5b f8 bc 23 79 3e bd
       -0.064965196 0.022972252 -0.030317005 -0.046502244
0003e0 2e 09 92 bd 72 37 e8 bb 43 ba 8b 3d 43 84 46 bd
       -0.07130657 -0.0070866877 0.06822636 -0.04846598
0003f0 57 dc 35 3c e8 99 78 3c 2a 9d 5f 3d 8a e6 37 3d
       0.011099896 0.015173413 0.054593243 0.044897594

weight_hh_l0 f4 [200, 200]
000000 ef 12 f6 bc ba f1 ae bc db 06 31 bc f8 52 60 bd
       -0.030038325 -0.021355499 -0.010804857 -0.054766625
000010 c3 8e 56 3d 5e 7f 88 bd 3a 47 a1 3d 8b 2b 7e bc
       0.052382242 -0.06664918 0.078749135 -0.015513311
000020 dd 2e 8a 3c 48 e4 7d 3d 08 a2 79 3d ae dc b8 bc
       0.01686805 0.061985284 0.06094554 -0.022566166
000030 c0 02 82 3d 8f 86 8f bd 71 14 94 3d 52 d6 98 bc
       0.06348181 -0.07008087 0.072304614 -0.018656883
000040 1e 12 53 3d 56 5f fe bc 5e 67 4e 3d 41 67 72 3d
       0.05153095 -0.03105132 0.050391547 0.0591805
000050 fc d0 70 3d 5c 9e 82 bd 77 21 0a 3d d9 fc 9f bd
       0.058793053 -0.06377861 0.03372332 -0.07811899
000060 9a c9 f7 3c 05 50 cf 3a f6 bf 7c 3d 88 75 61 3d
       0.030247498 0.0015816694 0.061706506 0.055043727
000070 b5 8b 8d bd 73 1a 40 bd 1b 9d a8 3c ad 90 95 bd
       -0.069114126 -0.046900224 0.020582726 -0.07302985
000080 18 59 34 3d 5b f6 5c 3d 2f 2c 77 3d 83 e1 82 3c
       0.04403028 0.05394588 0.06034487 0.015976673
000090 e2 59 20 bc 3d ce f3 3c 86 1d 4e bd 18 b3 47 3d
       -0.009787055 0.029761428 -0.050321124 0.04875478
0000a0 c1 4d 22 3c 5e a1 28 bd 67 02 49 bc 73 5d 68 3c
       0.009906233 -0.041169517 -0.012268639 0.014182436
0000b0 53 e6 0b bd 0c 09 4c bc 7a e0 bb 3c 83 2f 7e 3d
       -0.0341552 -0.012453329 0.022934187 0.06205703
0000c0 de 38 af bc 2e 74 55 3c 9f 25 f3 bc 6e 13 ee 3b
       -0.021389421 0.013028188 -0.029681025 0.0072655
0000d0 1e 11 4e 3d 98 f7 1e bb b5 05 48 bb 3e 29 d1 39
       0.050309293 -0.0024256464 -0.003052098 0.00039894314
0000e0 7f 4e 8a bc af 86 93 bd 26 bd 2b bc 4b be 3c bd
       -0.016883133 -0.07203423 -0.010482108 -0.046079915
0000f0 54 50 01 3c ad 20 eb bc c6 4e 43 bd c3 e4 7f bd
       0.007892687 -0.028702104 -0.047682546 -0.062474024
000100 16 94 9d bd 60 db f8 3c 94 c1 6e 3d 71 ca 1d bd
       -0.07694261 0.030378044 0.05829008 -0.03852314
000110 13 57 8a bd 65 b8 d9 3c f2 e9 0a bd 0e c4 8f 3d
       -0.06754889 0.026577184 -0.033914514 0.07019816
000120 25 e5 61 bd ef 9d 80 3d df 5b 30 3d 90 a3 e9 bb
       -0.05515017 0.062801234 0.043056365 -0.007130094
000130 de d5 57 3d fe f1 a1 bc b5 b4 33 bc ff 8b 5f 3d
       0.052694194 -0.019768711 -0.010968377 0.05457687
000140 c5 c9 6f bd bb 75 ad 3b dc 7e 3c bd 79 0c 73 3d
       -0.05854203 0.0052935756 -0.04601942 0.059338067
000150 76 ad a2 ba 50 3a 17 bd b9 3a 67 3b 96 d2 94 bd
       -0.0012411315 -0.036920846 0.0035282804 -0.072667286
000160 09 fe c8 3c de 83 84 3c f7 1e 30 3c a6 c4 02 bd
       0.024535196 0.01617616 0.01074957 -0.03192582
000170 1b 64 88 3d 32 d6 a0 ba cb 16 32 bd 5a 11 2c bd
       0.066597186 -0.0012270866 -0.04347877 -0.042008735
000180 c7 70 c9 ba ef c4 8d bd 5e 9d 14 3d 6c ca 4d 3d
       -0.0015368693 -0.06922328 0.03628289 0.050241873
000190 2b d4 b9 bc 7a 5a ef bc 87 90 f6 3c 9a ed e2 3c
       -0.022684177 -0.029217947 0.030098213 0.027701188
0001a0 80 1b 3f 3d 26 b3 4e bd f6 3e 62 3d 9a ac 4d 3d
       0.046657085 -0.050463818 0.055235825 0.050213434
0001b0 3f cb be bc ed 07 04 3d 0b 76 1e 3d 1a 39 0b bd
       -0.023290275 0.03223412 0.038686793 -0.033990003
0001c0 1a 50 9c 3c d8 43 e3 bc c0 d6 73 3c 16 ce 70 bd
       0.019081164 -0.027742311 0.014882743 -0.05879029
0001d0 f2 9e 31 3d e8 9c 75 3d c3 80 8d 3d a7 82 5a bc
       0.043364473 0.05996409 0.06909325 -0.013336814
0001e0 84 b3 e5 3c c7 a7 98 bd c6 a7 14 3c e8 70 3c bd
       0.028039701 -0.07453876 0.009073203 -0.046006113
0001f0 3f fe ce bc 8d fb 25 bc 04 99 95 bc 0c 26 62 bc
       -0.025267718 -0.010130775 -0.01826144 -0.013803016
000200 1d e1 50 3c bb 10 77 bc 66 99 84 bc 5a 99 89 3d
       0.012748984 -0.015079672 -0.016186427 0.067187026
000210 50 c2 fc 3c 14 e0 19 bc d8 31 f7 bc 32 d6 39 bd
       0.030854374 -0.009391803 -0.030175135 -0.04537029
000220 ed 60 1e 3d 6f ee a5 bd 0d 87 19 bd 2a de a0 3d
       0.038666654 -0.08102118 -0.03748231 0.078548744
000230 e1 aa 66 bd 79 c0 14 bb cb 85 0d bd ab 85 6d 3c
       -0.056315307 -0.002269773 -0.034551423 0.014497201
000240 a0 7f b6 3c db 2e 0a 3c 66 4e bd bc 11 c5 f9 bb
       0.022277653 0.008434023 -0.023108672 -0.007622369
000250 ff c4 05 3d 24 6e 34 bc f0 ab 20 bd 9e a9 8a bd
       0.032658573 -0.011012588 -0.039226472 -0.06770633
000260 03 4f 6f bd 22 8f 7a bd a9 1e 9c bd 9e b4 04 bd
       -0.05842496 -0.06117166 -0.076230355 -0.032398812
000270 08 4a 7c bd b6 e0 e5 bc ec 4f a6 bc 08 57 79 bd
       -0.06159404 -0.028061252 -0.020301782 -0.060874015
000280 9e fc 36 bc 52 5d aa bc b6 a5 93 bc 14 c2 e3 bb
       -0.011168627 -0.020796452 -0.018023353 -0.006950626
000290 99 3d 88 3d f7 df 05 3d f8 d4 dc 3c 20 63 6c bd
       0.06652374 0.032684293 0.02695702 -0.05771172
0002a0 4a 58 b4 3b 23 0b 1e bc 6a 27 23 bd b1 1d 0e 3d
       0.005503689 -0.00964621 -0.03983251 0.034696285
0002b0 8c 66 47 3d dd a1 31 bd 52 ab 09 3d f3 fb 85 bd
       0.04868178 -0.043367255 0.03361065 -0.06542196
0002c0 fe 82 2a bd 16 e1 8f 3c 3c 8a 68 3d e7 1a 9e bc
       -0.04162883 0.017563384 0.056772456 -0.019299937
0002d0 be 94 34 3d bb c4 48 3d 8a 26 54 bd 39 01 a6 3d
       0.044087164 0.04901574 -0.051794566 0.08105702
0002e0 bd ff 3c bb dc b3 72 bc b1 0a a6 3c 41 a4 4c bb
       -0.0028838955 -0.01481339 0.02026877 -0.0031225833
0002f0 67 92 c3 ba 5f d2 5c 3d 8b de a0 bc 6d cc 50 3d
       -0.0014920951 0.053911563 -0.019637367 0.050976206
000300 1c 32 d0 bc 95 1f 01 3c 39 b5 5e 3d 57 87 8f bc
       -0.025414519 0.007881065 0.054372046 -0.01752059
000310 ff b4 ec 3c e4 ad 65 bd 70 dc 26 bd 2e 89 69 bd
       0.0288949 -0.05607404 -0.04073757 -0.05701559
000320 15 b5 87 3d 44 6c 71 bd 29 18 22 bd 62 86 f7 3a
       0.066263355 -0.05894114 -0.039573822 0.0018884654
000330 84 21 db 3b cd 3c 82 3d ef 1a 4a bd 86 5b 3c 3d
       0.006687345 0.06359253 -0.049342092 0.04598572
000340 18 59 5f bd 34 17 14 3d 7e 54 82 3d 54 1e 84 3c
       -0.054528326 0.03615494 0.06363772 0.016127743
000350 c0 85 45 3d 13 bc 32 3d 35 5c 46 bd 92 ff 8a bc
       0.048223257 0.043636393 -0.04842778 -0.016967569
000360 3e 4e 06 3d 31 dc 8b bc 82 8e 03 bd 73 26 ff bc
       0.03278946 -0.017072769 -0.032118328 -0.031146264
000370 0b ea 02 3c 4e af 9c bc 36 75 c2 3c 19 30 c1 3c
       0.0079903705 -0.01912656 0.023737531 0.023582505
000380 ac bf 04 bd 84 05 40 bd 44 29 c6 bc 50 be 16 bc
       -0.032409355 -0.04688026 -0.024189599 -0.0092006475
000390 da f8 c5 3b 64 31 7f bd ec d3 3f 3d 5b b8 fa 3c
       0.0060416283 -0.062302962 0.046832964 0.030605486
0003a0 60 aa 45 3a ef 1f e8 3c c4 7e 6b bc 9c 28 4f 3d
       0.00075403415 0.02833554 -0.014373485 0.050575837
0003b0 cd 1a c6 bc 8e 98 e8 3c 96 a3 d9 bc b3 10 ca bc
       -0.024182701 0.028393056 -0.026567262 -0.024666166
0003c0 71 72 23 bc df 52 36 bb 1d 0e c5 3c 8d fc af bc
       -0.009976015 -0.002782039 0.024054581 -0.02148273
0003d0 bc a8 89 3d aa 6e 92 3d 62 a8 2f bd ae 3c 23 3d
       0.06721637 0.07150014 -0.04288519 0.03985279
0003e0 ad 5e 1c 3c 83 e2 37 bd 50 ff 51 bd 79 7b 66 bc
       0.009544057 -0.044893753 -0.051268876 -0.014067524
0003f0 a0 51 76 3d e8 27 44 3d 41 8c 1b bd 08 b8 87 3c
       0.060136437 0.04788962 -0.037975553 0.016567245

bias_ih_l0 f4 [200]
000000 28 ec 6c 3d c5 8f 78 bd 19 a3 29 3d 2f d6 bd 3c
       0.057842404 -0.060683984 0.041415308 0.02317342
000010 58 72 28 bd 9d 3b 7e 3c bd 99 0e 3d fc 17 11 3a
       -0.04112467 0.015517143 0.034814585 0.0005534885
000020 cc 25 a6 3c f2 25 57 bd 63 ef 93 bc 2f c5 da bc
       0.020281695 -0.05252642 -0.018058484 -0.026705353
000030 ab 0c ef bb e4 22 24 bd 58 64 f6 bc 9e 64 c0 bc
       -0.0072952113 -0.040072337 -0.030077145 -0.023485478
000040 cd fe e7 bb 96 d7 e2 3a 62 4d db bc e2 4f 8e bd
       -0.007079935 0.0017306681 -0.026770297 -0.0694883
000050 c4 ed 95 3c 4d d1 88 ba 54 0f 96 bc cd e0 5d bc
       0.018301852 -0.0010438353 -0.018317856 -0.013542366
000060 16 aa a5 3b a5 5f ec bb 91 de f5 3c 94 93 a0 3c
       0.005055676 -0.00721355 0.030013354 0.01960162
000070 4b 90 78 bd 55 93 fc 3c 78 a5 05 bc 35 dc 5a 3d
       -0.060684483 0.030831972 -0.008157127 0.053432662
000080 e3 b6 0e 3c 6e 7b 8d 3d 56 b1 43 bd 4a de 29 bd
       0.008710596 0.06908308 -0.047776543 -0.041471757
000090 61 bb c1 bc 9f 81 66 3d 6b c9 c2 bc 90 92 79 3d
       -0.02364892 0.05627596 -0.023777684 0.06093079
0000a0 41 47 25 3d 55 9d f6 ba 1e 44 ae bb a7 43 20 bd
       0.040351156 -0.0018815199 -0.005318179 -0.03912702
0000b0 ab 9f 8a bd c3 c0 73 3d 87 4e 80 bd 7f 69 91 3c
       -0.067687355 0.059510004 -0.06264978 0.0177505
0000c0 b3 01 29 bb 87 69 4a 3d 35 0e 08 3c 4b 2f 82 bd
       -0.0025788366 0.049417045 0.0083041685 -0.06356677
0000d0 83 a9 85 bd b6 25 54 3d c5 de fb 3c 0d ab 3e bd
       -0.065264724 0.051793776 0.030745873 -0.046549845
0000e0 ef e1 80 bd 72 3b 25 bd 57 38 00 3d 9f b4 4f 3b
       -0.062930934 -0.040339895 0.03130373 0.0031693352
0000f0 68 2a ae bc 57 e6 84 3d fc e9 90 bc 9f ba 92 3c
       -0.021260455 0.06489246 -0.017689697 0.017911253
000100 7f 1f 4a bc 22 9b 5e 3d 9c 0b 88 bc d6 8c b1 3c
       -0.012336611 0.054347165 -0.016607098 0.021673601
000110 90 06 36 bd 9b 75 63 bb af 34 bf bc 9d 76 07 bd
       -0.044439852 -0.003470755 -0.023340551 -0.033072103
000120 db 69 01 3d 60 26 8a 3d 9f 9c 0b 3c a7 27 1c bd
       0.031595092 0.06745601 0.008521228 -0.038123753
000130 7a 91 2c bb 78 aa 7b 3d 42 e4 17 3c 69 cd 1f bd
       -0.0026331828 0.06144187 0.0092707295 -0.039014254
000140 16 cb b9 bc 65 ca d9 3c 17 fa 11 3d 56 a4 e5 3c
       -0.022679847 0.026585767 0.035638895 0.028032463
000150 52 1e 0b bd 9a de 67 3d de c9 0c 3d bf 4b e7 bc
       -0.033964463 0.056608774 0.034372203 -0.02823436
000160 d6 7a 75 3d c5 1d 0a 3b 34 25 3d bd 09 ef a8 3b
       0.0599316 0.0021074873 -0.046178058 0.0051554483
000170 99 27 4f bd 05 e1 64 3d 15 0d 8b bd 5b b7 32 3b
       -0.050574873 0.055878658 -0.067896046 0.0027269933
000180 12 ac 94 bd 75 b2 40 bd fb 51 0e 3d 0b 46 86 3c
       -0.07259382 -0.04704519 0.03474615 0.016390821
000190 d7 32 df bc 2d b4 30 bc de ce 83 3c f7 4c 15 3d
       -0.027245922 -0.010785145 0.016089853 0.036450353
0001a0 e7 3f c7 bc 59 cd 35 bd e5 bc 83 3b c0 a5 eb bc
       -0.024322463 -0.044385288 0.0040203207 -0.02876556
0001b0 01 e1 4e 3d f4 83 f6 3c 5e a5 44 3d 14 9f ca 3b
       0.05050755 0.030092217 0.04800927 0.0061835144
0001c0 a9 d9 15 3c c5 07 59 bc 4c f1 97 3d 5c 38 29 bd
       0.0091461325 -0.013246481 0.074190706 -0.041313514
0001d0 f0 5b 09 3d ba 51 96 3d a0 6a a6 bc 64 9d 53 3d
       0.033534944 0.07339807 -0.020314515 0.05166377
0001e0 b6 d3 1b bb 72 88 3c bd 06 91 46 3c 33 db 26 3d
       -0.0023777313 -0.046028562 0.012119537 0.04073639
0001f0 c5 57 4c 3d 62 b8 16 bd 30 84 25 bc b6 8e 10 3d
       0.04988839 -0.036796935 -0.010102317 0.03529235
000200 36 12 6e bd 18 84 ec bb 5f a0 b9 bc ad 59 52 bc
       -0.058122836 -0.0072178952 -0.022659479 -0.012838763
000210 72 69 24 bd 0b 19 1e bd 2d a2 76 3d 56 d3 68 bd
       -0.040139623 -0.0385981 0.060213257 -0.05684217
000220 0e b2 b1 3c df f8 68 3d 16 a1 0e 3c f2 90 63 3c
       0.021691348 0.056877967 0.008705398 0.013889538
000230 0f 9d 14 3d 3f c8 2b 3a 38 04 27 3d 31 62 74 3c
       0.036282595 0.00065529713 0.040775508 0.014915989
000240 06 7d 84 bb d8 05 1a bc b2 23 a9 3c f8 da 84 3d
       -0.0040432243 -0.009400807 0.020646904 0.064870775
000250 a0 2c 82 3d f3 8d 77 3d 1e 12 2d 3c f0 51 fb 3c
       0.06356168 0.060438108 0.0105634015 0.03067872
000260 6b cb b2 bc 40 53 bc bb e8 bf 3f bd a2 5e 47 3c
       -0.021825513 -0.005747229 -0.046813875 0.012168558
000270 2d ab 93 3c e1 74 46 bd 9c 11 bc bc a4 d0 5c bc
       0.018025959 -0.04845131 -0.022957616 -0.013477478
000280 b4 6f 18 bd 7e e8 f8 3c af ab 67 bd c9 56 fa 3c
       -0.037215903 0.030384298 -0.056560215 0.03055896
000290 c5 62 03 3b 13 91 6e 3d ae 36 90 bd 2f 63 94 bc
       0.0020047885 0.058243822 -0.07041679 -0.0181137
0002a0 d8 de 3b 3d a6 1e 84 3d 24 3f 89 bc ae f0 8a 3c
       0.045866817 0.06451158 -0.01675374 0.016960468
0002b0 63 17 a0 3c bc 8d 99 bc 19 fb 9e bc a8 c2 cb bc
       0.019542402 -0.018744342 -0.019406842 -0.024873093
0002c0 f3 0a 64 3d e9 ad 1d 3c 4e d5 12 3d 30 d8 fa bc
       0.055674504 0.009623983 0.035847954 -0.030620664
0002d0 b0 bc 0f 3d 10 36 bc 3c 3d cf 59 bb 07 b5 fa bc
       0.035092056 0.022974998 -0.0033235096 -0.030603899
0002e0 ae 2f 57 bd 0c 39 20 3d a1 4a ee bc ff 7a 67 3d
       -0.052535705 0.039116904 -0.02908832 0.056513783
0002f0 ea 80 46 3d f4 9d 1c 3d 1b 42 fe ba eb 6f 74 bc
       0.048462786 0.038236573 -0.0019398363 -0.014919261
000300 f1 d9 4d bc 75 e0 d6 bc bf a3 1c bd b5 88 19 bc
       -0.012564168 -0.026230076 -0.038242098 -0.009370972
000310 f7 5b ef 3b 54 74 b8 bc da db 81 bc 04 bf 01 bd
       0.0073046642 -0.022516407 -0.015851904 -0.031676307

bias_hh_l0 f4 [200]
000000 b4 16 43 3c c4 3d 96 3d a7 df 71 bd 50 c9 23 3d
       0.011907268 0.073359996 -0.059051182 0.03998691
000010 c6 c7 85 3d 6f 5b c7 bc e4 bd dc bc f8 ec 19 3a
       0.065322444 -0.024335591 -0.026946016 0.0005871798
000020 6a 52 b7 3c 14 6f 39 3d d7 96 2b 3d b3 0b 74 bd
       0.022378165 0.045271948 0.0418919 -0.05958147
000030 06 5c e5 3c 9a 0f 29 bd 1c 64 8c 3d 0e 96 a6 3c
       0.027997982 -0.041274644 0.06855032 0.020335224
000040 64 ca b8 bc b4 81 09 bd bb 1b 0b 3d ad 38 6b 3d
       -0.022557445 -0.03357096 0.033961993 0.057427097
000050 22 92 15 bd 47 55 e6 3c c0 08 7a bd 53 41 4b bc
       -0.036516316 0.028116835 -0.0610435 -0.012405711
000060 c4 39 05 3d c2 5a c4 3a 80 5f 17 3a 6a 33 18 3d
       0.032525793 0.0014980661 0.00057744235 0.037158407
000070 38 af 77 bc 36 a2 67 bc 4d 3d 89 3d a7 e2 9b bc
       -0.015117459 -0.014137795 0.06701145 -0.019028975
000080 89 8c 7a 3d 9a 54 0a bd bb e2 5c 3d 86 8d e2 bb
       0.06116918 -0.03377209 0.053927165 -0.0069138436
000090 42 9d 19 bd 77 86 82 3d bb 3d c1 3c 4c 09 15 3d
       -0.03750349 0.063733034 0.023589006 0.03638582
0000a0 5d c0 5e bd 17 c8 4f bc f3 43 6a bd ff ef 5e 3d
       -0.05438267 -0.0126819825 -0.057193708 0.054428097
0000b0 3b 06 8b bd 14 b2 f9 bc f3 bc 69 bd 44 8a 6d 3d
       -0.06788298 -0.030480422 -0.05706496 0.05799319
0000c0 de eb 8d 3c ad 58 5a bd 02 2f 8c bc 71 36 23 bd
       0.017324384 -0.053307224 -0.017112259 -0.03984684
0000d0 52 09 42 bc 3e 13 a6 3c 11 34 92 3c c3 10 27 bd
       -0.011843042 0.020272847 0.017847093 -0.04078747
0000e0 05 35 12 bc 5d 19 ff bc 53 4e 8a bd 6c fd 3b bd
       -0.008923774 -0.031140024 -0.067532204 -0.04589598
0000f0 46 83 a1 bc 02 c0 17 bd ac a3 72 3d bc 3e 3d 3d
       -0.019715916 -0.037048347 0.05923812 0.046202406
000100 bb 67 09 3c 52 58 65 3d 77 03 73 3b b6 54 a8 bc
       0.008386548 0.055992432 0.0037080923 -0.020548206
000110 96 48 9c bd f4 cf 7b bd af 60 46 3d 32 06 45 3d
       -0.07631032 -0.061477616 0.04843205 0.04810161
000120 72 86 70 3d 83 e3 4e 3d 9f 77 1a bc d5 93 63 bc
       0.058721967 0.05050994 -0.009427934 -0.013890226
000130 ad 48 fb 3c aa 01 0c bd 6b 43 e3 3c 7f 0b 52 bc
       0.030674303 -0.034181274 0.027742108 -0.012820124
000140 57 e2 78 3d 4e c4 19 39 8d a3 18 3d eb 72 53 bd
       0.06076273 0.00014664346 0.03726535 -0.051623266
000150 8a dc 3f bd 92 00 e3 3c 8d ea ee 3c c0 10 7d bc
       -0.04684118 0.027710233 0.029164577 -0.015445888
000160 4e e1 6f bd 97 09 49 bd 5c 61 4e bd 23 50 d2 bc
       -0.058564477 -0.04908141 -0.050385818 -0.025672978
000170 37 d5 41 bd 57 f8 5f 3c 33 9a 6e bd 76 86 10 3d
       -0.04732248 0.013670049 -0.058252525 0.035284482
000180 4b 4a 09 bd ef d9 ef bb c5 16 38 bd f8 e1 99 3d
       -0.033518117 -0.007319681 -0.04494359 0.07513803
000190 33 e4 b0 3c 07 e9 59 3d d9 5b 21 bb b5 d0 01 bd
       0.021593189 0.053200748 -0.0024621396 -0.03169318
0001a0 ab 00 e8 bc 75 b8 02 bd b4 b6 6e bd 48 18 84 bc
       -0.028320631 -0.031914193 -0.058279708 -0.01612486
0001b0 8f c2 44 3a 34 ee 0c 3d ce bd 04 3d d4 d4 d3 3c
       0.0007505798 0.034406856 0.032407574 0.02585832
0001c0 a3 71 47 bd d8 1a 9d bc 7f 64 50 b8 d0 ab 46 bc
       -0.048692357 -0.01917784 -4.968466e-05 -0.012125924
0001d0 0b a7 ae bb 69 80 76 bd e2 c9 0f 3d 56 9d 19 3d
       -0.0053299717 -0.060181055 0.03510464 0.037503563
0001e0 7b a1 05 bd a8 28 91 3b 9d 0f 46 bd d9 44 24 3d
       -0.032624703 0.0044298954 -0.048354734 0.04010472
0001f0 7b 5a c8 3c 36 57 2b 3d 1e c9 7c 3d a0 53 56 bd
       0.024457207 0.041831218 0.061715238 -0.052325845
000200 26 47 83 bd da ed 76 3b e7 c9 3e 3d c2 98 8e bd
       -0.06410055 0.0037678392 0.046579268 -0.0696273
000210 ff 19 1f 3c b0 2c 9b 3c fe cc 67 bb 6a 75 c4 3c
       0.009710788 0.018942207 -0.0035369988 0.023981769
000220 3a 69 33 3c c2 2d 63 bd bf b0 68 3d 83 ff 34 3d
       0.010950381 -0.05546356 0.056809183 0.044188987
000230 49 2e 0c bd 66 5d 7a bd 3c f4 b8 3c a6 de 82 bc
       -0.03422383 -0.061124228 0.022577398 -0.015975308
000240 26 64 0e 3d bd 0f 15 3d f0 82 7c bd a5 ec 42 3d
       0.034763478 0.036391962 -0.06164831 0.047588963
000250 5c 9d c1 3c 78 1a 8a 3d 90 f3 27 bd 28 1e cf 3c
       0.023634605 0.0674333 -0.041003764 0.025282934
000260 16 12 5f 3d 41 6f 29 bd dd c3 01 bd 9d ae 87 3d
       0.054460607 -0.041365866 -0.03168093 0.06625102
000270 26 ff 1d bd 7a 9b c2 3c 94 04 45 3d 3b 5d 73 3d
       -0.038573407 0.023755778 0.04810007 0.059415083
000280 43 79 0f 3d 31 ec 90 bd 33 5f 7e bd 9c d1 66 3d
       0.035027754 -0.070763 -0.062102508 0.056352243
000290 43 03 c6 3c a2 09 c0 3b ea 36 89 3d 32 7c 63 bc
       0.024171477 0.0058605233 0.06699927 -0.013884591
0002a0 3a 32 41 bd 0a 0c 82 3d 4d e0 71 3d 00 e4 1a 3d
       -0.04716704 0.063499525 0.0590518 0.037815094
0002b0 0f d8 a2 bc a9 eb 84 bd ad aa 31 bc 9b e7 46 3d
       -0.019878415 -0.06490261 -0.010843915 0.04856072
0002c0 c3 5a 1d 3d 40 92 1d 3d f4 ae 95 3c 17 c0 13 bd
       0.038416635 0.038469553 0.0182719 -0.036071863
0002d0 ea 6b 25 3d d4 0c c8 bc 79 67 26 bc 36 6b b0 bc
       0.040386118 -0.02442018 -0.010156506 -0.021535497
0002e0 60 69 3f 3d 0c 63 2f 3d 99 61 30 bd a9 a3 16 3d
       0.046731353 0.042819068 -0.043061826 0.036777172
0002f0 7c a0 4a 3d ce 6b 2d 3c 6b 4f 88 3d 26 28 5e bd
       0.049469456 0.010584785 0.06655773 -0.054237507
000300 fe af 0a bd 1c c1 52 3d 8e c9 39 3d 5c 94 af 3c
       -0.033859245 0.051453695 0.045358233 0.021433048
000310 5c 45 7c bd c3 8f 61 3d 85 20 3f 3d e6 56 23 3d
       -0.061589584 0.055068742 0.046661872 0.039877795

weight f4 [4, 200]
000000 b5 52 03 3d 4e 5e 9b 3d 4f c0 6c 3d ac 34 ff bb
       0.032061297 0.075863466 0.057800587 -0.0077882614
000010 c1 01 e5 bc 8a dc 60 bd 2a 8f 7a 3b 23 1e 8b 3d
       -0.027954938 -0.054897822 0.0038232305 0.067928575
000020 5e be 5e bd 95 54 71 3c 16 55 bd bd 0f 14 92 bc
       -0.054380767 0.014729639 -0.092447445 -0.01783183
000030 c7 28 a7 bd a1 7f 38 3d 94 52 9e 3d 37 76 a7 3d
       -0.081620745 0.04504359 0.07730594 0.081768446
000040 84 5c 55 bc 9d bf 3a bd 2d 22 4e bd b6 b9 37 bd
       -0.013022546 -0.045592893 -0.05032556 -0.044854842
000050 42 5d 40 3d d9 3f ed 3b 8c 9f 80 bd 6b 60 0f 3d
       0.046963938 0.0072402772 -0.06280431 0.03500406
000060 e1 ae f6 bc d7 4d 86 bc 22 89 45 bd d5 9b 95 3c
       -0.030112686 -0.016394539 -0.048226483 0.018262783
000070 51 c8 af 3d 7f 1d 8f bc b2 a2 98 3d aa 92 71 bc
       0.08583129 -0.01747012 0.07452907 -0.01474444
000080 da 5a 13 3d 1d cd 9b bd 83 28 9b bd ec d0 df 3c
       0.035975315 -0.07607482 -0.07576086 0.027321301
000090 a2 f2 7a bd ff 3e 14 3b 57 a5 29 3b 19 a1 a8 bc
       -0.06126655 0.0022620556 0.0025885904 -0.02058463
0000a0 0c 29 9c bd 3b 21 39 bd 09 d4 d5 3c 4f 63 52 3b
       -0.076250166 -0.045197707 0.026102083 0.003210265
0000b0 5d ec bf bb 20 ec 1d 3d 78 b7 b3 bd 91 c3 69 bd
       -0.005857034 0.038555264 -0.08775228 -0.057071272
0000c0 92 aa a5 bc 97 1e 89 bd 48 0a 06 3d 47 87 bb 3c
       -0.020222936 -0.06695288 0.03272465 0.022891654
0000d0 35 49 6a 3d 67 97 43 3c 4b 6b e9 bc 70 47 ae 3d
       0.057198722 0.011937953 -0.028493544 0.08509719
0000e0 3a ae 46 bd db 44 6a 3d 9a 2d 5c 3c 02 14 5f 3d
       -0.048506 0.057194572 0.013438607 0.05446244
0000f0 31 de a6 3d b8 df e7 bc 07 8c 97 3d a1 2c 88 3d
       0.081478484 -0.02830492 0.07399755 0.06649137
000100 4e 16 97 3c e4 a8 a4 bd e4 64 5e 3c 22 b2 8d bc
       0.018443253 -0.08040026 0.013573859 -0.017296854
000110 14 6f db bc 38 d0 13 3c fe 13 85 bb de ab 36 bd
       -0.026786365 0.009021811 -0.004061221 -0.0445975
000120 f4 d7 59 3d bc f1 32 3d f7 21 8a bd 73 ad 49 3c
       0.053184465 0.043687567 -0.067447595 0.01230942
000130 2a af ce 3c 59 48 27 bc c4 96 06 3b e4 e3 43 bc
       0.02523001 -0.01021012 0.002053664 -0.011956189
000140 c7 01 a4 3c 9e 66 b6 bd e6 29 c7 3c 4e 8a f7 bb
       0.020020379 -0.089062914 0.02431197 -0.007554329
000150 66 d2 a2 3d 06 9d 93 3d a2 c7 f4 bc d1 31 54 3d
       0.079502866 0.07207684 -0.029880349 0.05180532
000160 ee 49 9a 3d 70 96 83 bd ee 70 6f 3d c2 d5 65 3c
       0.07533632 -0.06425178 0.058457308 0.014028015
000170 b1 fe 56 3d 5f 4a 88 bd 17 5e 15 3d 2c c3 2c bc
       0.052488986 -0.0665481 0.036466684 -0.0105445795
000180 5a c3 a6 bd 74 76 c2 bd 83 ea b3 3d 3e 39 6c 3d
       -0.08142729 -0.094952494 0.08784964 0.057671778
000190 57 46 65 3b 3b d5 06 3d 73 18 96 bd 1e 50 3d 3d
       0.0034984553 0.032918196 -0.07328882 0.046218984
0001a0 be 14 84 bd 6c 71 22 bc 2e 93 69 b9 9a a2 bf 3d
       -0.06449269 -0.009914737 -0.0002227544 0.09357186
0001b0 e5 a0 e8 3c 57 22 b9 3c cc b2 04 3d 78 eb 9c ba
       0.028397033 0.022599382 0.032397076 -0.0011972031
0001c0 c8 b0 a6 3d 77 72 33 3d ce e7 8b bd a0 8d 4b 3d
       0.08139187 0.043810334 -0.068313226 0.04969561
0001d0 d3 85 c6 3c f4 08 bd 3d b2 75 89 bd ef 5f 50 bd
       0.024233734 0.09230223 -0.06711902 -0.05087274
0001e0 59 37 fb bc 0c ee c5 bc f4 fa a5 bc b2 ae d7 3a
       -0.03066604 -0.024161361 -0.020261265 0.0016455262
0001f0 6f 87 8b 3c d1 4e 96 bd 62 66 f5 bc f1 6f 05 bd
       0.017032353 -0.07339252 -0.029956046 -0.03257746
000200 bd 11 e1 3c 5e 78 54 3d 89 32 a6 3b 8a 6d 9a bd
       0.027474279 0.051872604 0.005071942 -0.07540424
000210 fd a1 b7 3a 21 15 96 3d 1a e3 10 3d d2 f3 22 3d
       0.0014010068 0.07328249 0.03537283 0.039783306
000220 72 ed db bc 93 12 94 3d 1d 88 c3 3d 8c 79 8a bd
       -0.026846621 0.07230105 0.09547446 -0.067614645
000230 23 bf 42 bd 9e a8 00 3c 9b 1d a6 bd 82 8e 52 bd
       -0.047545563 0.0078527015 -0.081111155 -0.051405437
000240 4b da 04 bd e3 6f b5 bc c3 84 bf 3c 5f c9 bd bc
       -0.032434743 -0.022148078 0.023378735 -0.02316731
000250 ff bf 2d bd c8 fa 61 3c 5e 9f 72 3d 3b ed 8c 3d
       -0.04241943 0.013792701 0.059234016 0.068811856
000260 6c c0 9d bc 29 14 b4 3d bd c7 c2 3d 58 82 3d bd
       -0.019256793 0.08792908 0.09510753 -0.046266884
000270 2d 1f ad bc dc a8 0c bd 05 29 b3 3d fa 1e 94 bd
       -0.02113303 -0.034340724 0.08748058 -0.07232471
000280 1b b5 40 3c fe 50 76 3d d8 f3 07 3b 2e 00 8d 3d
       0.011761929 0.060135834 0.0020744707 0.068848
000290 bd a6 dd 3c 7b b0 87 bd 60 1c a2 bc 6d ff b8 bc
       0.027057046 -0.06625458 -0.01978892 -0.022582734
0002a0 7c 32 9a bd b2 df 14 3c f4 fc 4e 3c d9 0b 6b 3c
       -0.075291604 0.009086536 0.012633551 0.014346086
0002b0 aa cf 7e bd 55 a2 44 bd 67 71 3f bd 07 94 0b bd
       -0.062209763 -0.048006374 -0.04673901 -0.034076717
0002c0 e3 1a 2a 3d 7f 3d da bb 1a c2 73 3b fd d6 c0 bd
       0.041529547 -0.006660163 0.003719455 -0.09416006
0002d0 e0 d5 22 bd e5 f2 61 3d ef e5 b8 3d 91 d5 8d 3d
       -0.03975475 0.055163283 0.09028231 0.069255
0002e0 52 7a 87 bd 48 7f e0 3c 3c 12 19 3d 41 a3 7e 3d
       -0.066151276 0.027404442 0.037370905 0.06216741
0002f0 f7 86 54 3d c3 cb ca bd f0 20 a0 3d f9 aa ed 3c
       0.051886525 -0.09902146 0.07818782 0.02901219
000300 87 de fc 3b c3 45 62 3c 87 4a 2c bd 54 54 83 bd
       0.007716957 0.013810578 -0.042063262 -0.06412569
000310 93 a8 7e 3d ec dd a9 bd 79 4c 30 3d c7 ec 39 bd
       0.062172484 -0.08294281 0.04304168 -0.045391824
000320 45 26 c3 bd fe 27 93 bd ef 62 aa 3b 21 08 e5 bd
       -0.09528784 -0.07185362 0.005199782 -0.11183191
000330 90 08 19 3d f0 f5 84 3c 0d 1a 57 3d 6e 61 9e ba
       0.03736168 0.016230553 0.05251508 -0.001208348
000340 1a 83 ee bc 81 c2 f0 3c 17 18 4b bd b5 8f cb bc
       -0.029115248 0.029389622 -0.04958352 -0.024848798
000350 14 86 14 3d 10 8d 2b 3d ab f8 78 bd c2 5c 93 bc
       0.03626068 0.041882575 -0.060784023 -0.017988566
000360 87 72 be 3d d5 fc 81 3d 91 98 ae bd b2 74 89 ba
       0.09299188 0.06347052 -0.085251935 -0.0010487048
000370 b1 3a 68 3d 79 54 ad 3d 69 64 87 3d 6b 06 c2 3d
       0.056696597 0.084633775 0.066109486 0.094738804
000380 10 37 33 3d 11 65 8d bc e3 30 db 3c 0c 43 b6 bd
       0.043753684 -0.017260106 0.02675671 -0.08899507
000390 a3 03 48 bd da 81 ce 3d 5d 00 80 bc 16 e3 c1 3d
       -0.048831593 0.10083361 -0.015625173 0.09467141
0003a0 82 35 e5 bd 69 6e 0d 3d c3 3c 72 3d 45 1b 64 3d
       -0.111918464 0.034529123 0.05913998 0.05569007
0003b0 20 60 dc 3c 73 c1 30 3d 49 66 15 bd f1 02 63 bd
       0.026901305 0.043153238 -0.0364745 -0.055422727
0003c0 a3 1c 9c 3c 37 54 5f bd 79 e9 5b bd b9 16 6d bd
       0.019056624 -0.054523673 -0.053689454 -0.057883
0003d0 9f 3b 5c 3d 49 d0 ac bc fb fa 94 bd 56 8f 02 3d
       0.053767797 -0.021095412 -0.07274433 0.031874977
0003e0 cc b5 8c bc 7a 02 92 3d a1 45 dc 3c c1 0e c3 bd
       -0.017176531 0.071293786 0.02688867 -0.095242985
0003f0 be 4a 9f bd 8e f7 4b bc 30 79 8e bc 15 90 6a bd
       -0.07777928 -0.012449158 -0.017391771 -0.057266314

bias f4 [4]
000000 e5 33 7b bd 16 21 48 3d 3d 28 11 bd 82 44 d9 3c
       -0.061328787 0.04885968 -0.035438765 0.026521925
