results/rnn_tc/rnn_tc.pt (torch_old, 209277 bytes, 4 tensors)

weight f4 [200, 250]
00000000: c62c fabc 5b65 c2bd 401f aabd 1dda 07be
00000010: d085 7abc d0fc 05bb 0b0c 41bb 68e8 4cbd
00000020: f561 613c 49be 483d 6bf6 823c 90f7 213d
00000030: fcb2 d33c da46 50bd 17e1 12bb ea0a 943d
00000040: 0ffd 9b3d ead1 e2bc 482a c8bd 0791 d73c
00000050: 393a c03d 3414 5a3d 067e 12bd 8d9f 65bd
00000060: bfd4 c93c 3b4c 07bd 2b52 b3bc feff 3b3d
00000070: 2b28 85bb 3368 c03d 52e8 62bd 6337 353d
00000080: 3587 d13c 9a9b 92bc aba1 dfbc 03e4 a9bd
00000090: 3be3 3cbc 803c 813d 1b6a 013d ba21 8f3d
000000a0: 656b 71bd 25fd b43d 2e8d 61bd 2454 7abd
000000b0: 90ca 2dbd 9c30 4abd d207 0f3c 9896 95bc
000000c0: d734 293c ba15 1cbc 31c7 153d 0b26 243d
000000d0: 78df 63bd 9a12 a33c 7e9b 2c3d 527a 7abc
000000e0: 86a3 8ebd 3bae f43b df59 283d 2a32 1abc
000000f0: c0c7 6cbd e5bd 38bb 9f48 e5bd 46d1 203d
00000100: 6ab9 1c3d 71a3 5cbd e520 b6bc 467b 653d
00000110: 4ce9 ec3c 7e94 debc bb96 773d 746f d0ba
00000120: 6a54 e2bc b75a e43c f25f 5d3d 0cdd 7dbd
00000130: 0b21 52bc 60c8 5a3d c8ae d53c 35a1 783d
00000140: c986 903a ae39 64bd cdff 0abd 97f9 093d
00000150: 2e62 643c 2778 093d 82e7 c03c 527b 723d
00000160: 51bf 7cbd 56e3 2cbb e713 f6bb ac7d 623c
00000170: afe8 a83c c389 01bd b3d6 523d ceaf 99bd
00000180: 3e68 0fbd 4c3b 44bd 3b81 4cbd e211 2bbd
00000190: e952 0dbb e50e 713d ea7d 063d 8e8f 34bd
000001a0: bf73 67bd 6b71 883d f1ed 11bd ff53 1dbd
000001b0: 4c9e f1bc 3802 2abd 8e2a 81bd bc71 04bd
000001c0: 1a8b 64bb ea0f 72bb f671 52bc 3e14 30bd
000001d0: d2b5 8fbc 4983 953d d036 c5bc b490 253d
000001e0: 81c0 903d b295 323c 3ef6 053d 0f8e 493d
000001f0: e7a7 013c 3ee2 1dbd c87e d43c c4ff 0b3d
00000200: a7a0 1cbd f073 3a3d 57e8 abbc 302e 61bd
00000210: cd88 eabc 0bd0 873c 1db8 86bd 9208 a03c
00000220: b9ad 913c 02e3 c03c 1b9e ed3b 3fd5 06bd
00000230: 7da3 2ebd ca1a 2dbd ec76 d83d 1890 313c
00000240: 8cb4 cbbd 030d f8bc de5c ff3c 386f f23b
00000250: bac7 ce3c c293 a03c 9560 9fba 1884 bb39
00000260: acc1 0d3c 7684 573c 404d b93c 89ce 96bc
00000270: ed7a 12bd 2c61 ea3b d4fa cf3b c30c 743c
00000280: 0073 433c 11fa 603b 1947 08bd 72ac 2d3d
00000290: 66fd cbba 6ba6 933c b9e5 43bd 8942 763d
000002a0: afd3 383d d239 febc 9cb8 af3c e1e4 abbd
000002b0: 4c40 fbbc ef5c 04bd ea2c fa3c b56d 683d
000002c0: b778 533a f558 803d 2001 683d 85ae 293c
000002d0: 49bb 4bbd fe1f 19bc b71a adbc b2e2 34bd
000002e0: 057a 85bd 411a e0bc 9d9f 6fbc aa64 73bc
000002f0: 1a8d e03c d228 b2bc 38db ebbb bdf2 aaba
00000300: 6013 943c fbee 17bd a43b 483b faf3 5f3c
00000310: fdd7 92bc 24a4 b63c 84e2 9139 e33d dfbc
00000320: e99c 75bc 5835 47bd e829 c4bb 799d 77bd
00000330: a5a2 5abd 5061 023c 274a 943d ab72 3abb
00000340: cad8 053c 5d4c 05bc ae9a 3e3d dd65 803d
00000350: f418 d2bc 350f b93c 4edf 263d e951 443c
00000360: b97c 9ebd 9194 fc3b f5c2 823d 4770 383d
00000370: 6129 863c 4b64 543d 33fe 8a3c 183b 8f3b
00000380: 65b4 afbc 66d3 98bd 8492 5dbd 299e 763d
00000390: c268 493d 1f93 04bc 1f85 a9bd 1c15 7a3d
000003a0: 828f a1bc 8ead 093d 5f38 4f3d 5595 1ebd
000003b0: 6ab9 303d 31db 593d 3c5a febc c590 53bb
000003c0: b07c b93c 1d0a 733d d10a f4bc a034 b13c
000003d0: b390 5e3d bb6a 1cbd fd83 f9bc 289d 8dba
000003e0: 6f2c 6e3d 1044 6bbd ae56 09bb a9af 02bd
000003f0: 3ecb b0bc ae97 b0bd 8848 80bd 2a2f 57bc
-0.030538928 -0.09491988 -0.08306742 -0.13266797 -0.015290692 -0.0020444877 -0.002945664 -0.050026327
0.013756265 0.049009595 0.015986642 0.039542735 0.025842182 -0.05084882 -0.0022411996 0.07228644
0.076166265 -0.027687985 -0.097736895 0.026314272 0.09386105 0.053241923 -0.035764717 -0.056060363
0.024637578 -0.033031683 -0.021889767 0.04589843 -0.0040636263 0.093948744 -0.05539734 0.044242274
0.025577167 -0.017896462 -0.027298769 -0.08295443 -0.011528785 0.063103676 0.03159533 0.06988855
-0.05894031 0.08837346 -0.05506628 -0.0611154 -0.042429507 -0.049362764 0.008729892 -0.018260285
0.010327539 -0.009526664 0.036566917 0.040075343 -0.05563304 0.01990633 0.042140476 -0.0152879525
-0.06964783 0.007467059 0.041101333 -0.009411374 -0.057807684 -0.0028189358 -0.11195492 0.03926208
0.038262762 -0.053866807 -0.022232482 0.056025766 0.028919838 -0.027170416 0.060446482 -0.0015902356
-0.027628142 0.027875287 0.05404658 -0.061978385 -0.012825261 0.05341375 0.026084319 0.060700614
0.0011026497 -0.05571907 -0.033935357 0.033685293 0.0139394235 0.03356185 0.023547892 0.05919964
-0.06170589 -0.002638062 -0.0075096968 0.013823908 0.020618765 -0.03162552 0.051474284 -0.07504235
-0.035011522 -0.047908112 -0.04992793 -0.0417651 -0.002156431 0.058852095 0.032834925 -0.044082217
-0.05650687 0.06662258 -0.03562731 -0.038410183 -0.029494427 -0.041506022 -0.06306945 -0.032335028
-0.003487295 -0.0036935755 -0.012844553 -0.042988054 -0.017542753 0.07300431 -0.024073988 0.040421203
0.07067967 0.010899948 0.032705538 0.049207743 0.007913566 -0.03854584 0.02593936 0.034179464
-0.038239148 0.045520723 -0.020984812 -0.05497569 -0.028629685 0.016578695 -0.065780856 0.019535337
0.017783033 0.023545746 0.0072515137 -0.03291821 -0.042636383 -0.042261876 0.105695575 0.010837577
-0.09946546 -0.030279642 0.031172212 0.007398512 0.025241721 0.019601706 -0.0012159521 0.00035765837
0.008652132 0.01315414 0.022619843 -0.01840903 -0.035761762 0.007152697 0.0063470397 0.014895621
0.011929274 0.0034328739 -0.03327093 0.042400785 -0.001556319 0.01802369 -0.047826502 0.060122047
0.045123752 -0.03103343 0.021450333 -0.083932646 -0.030670308 -0.03231519 0.030538995 0.05674525
0.0008066999 0.06266967 0.056641698 0.01035655 -0.049739156 -0.009346006 -0.021130903 -0.044161506
-0.06517414 -0.027356269 -0.014625457 -0.014855543 0.027411032 -0.02174798 -0.007197764 -0.0013042312
0.018075645 -0.037093144 0.0030553127 0.013669008 -0.017925257 0.022295065 0.00027825322 -0.02725119
-0.014991024 -0.048634857 -0.005986441 -0.060452912 -0.053377766 0.007957771 0.07240706 -0.0028449695
0.008169362 -0.008135882 0.046534233 0.06269429 -0.025646664 0.02259026 0.040740304 0.0119824195
-0.07738633 0.00770814 0.06384841 0.04502895 0.016377153 0.05185346 0.016966915 0.004371058
-0.021448324 -0.07462196 -0.054094806 0.060209427 0.04917217 -0.008091717 -0.08277344 0.061055288
-0.01972175 0.03361278 0.05059087 -0.038716633 0.043145575 0.053187553 -0.031048886 -0.0032282334
0.022642463 0.059335817 -0.029790314 0.021631539 0.054337215 -0.038187724 -0.030458445 -0.0010804283
0.058147844 -0.057437956 -0.0020956206 -0.031905804 -0.021581288 -0.086226806 -0.06263834 -0.013133803

bias f4 [200]
00000000: d197 87bc 92f9 683d 59af 213b 3cc3 82bd
00000010: 3ddd aebc a2c0 83bc e29a 5fbd 96b2 233d
00000020: 74ea 90bd f4de 993d b298 73bd 5538 253c
00000030: 0de8 e23c 4498 9e3b 9bcd aabc 44bf 143d
00000040: 52fa 67bd c24d 14bd 14b2 82bc 6a78 2fbd
00000050: efe4 2c3d cdce ce3c af09 f0bb 24d5 9f3b
00000060: e81a ddbc fcf1 ef3a 0b1d 48bd e4fa 28bd
00000070: c269 7fbd ba3b 203d 5989 53bd 9d1e 5b3d
00000080: 2b96 a93c 4f7e 983b bbfc 133a 6591 853c
00000090: 80e2 25bd 3c0b 353d 666b 65bc 82a5 6dbd
000000a0: aa6e 1e3d 11b0 033d f171 74bc 2050 81bb
000000b0: dc5a 5fbd 8165 3dbc 13b2 373d 2fa0 93bd
000000c0: d500 a5bb e9b8 ba3c 6196 57bd c1a6 a0bc
000000d0: 9f25 2ebd 17fa 53bd 2e21 6dbc 259e 103d
000000e0: 9488 153d a43e 1ebd 9034 79bd 803e fcbb
000000f0: 0ea7 4d3c 38cb 79ba 6822 46bd cf9f 08bd
00000100: 0072 c8bc ec1c 343c d857 d93c 0482 febc
00000110: 8f89 d23b 1eb6 2cbd ffba 42bc 8612 86bd
00000120: 2fd1 ecbc f767 20bc 0ef8 3f3d c480 3d3d
00000130: 1466 d73c 6887 44bd 0e61 303b c791 1abc
00000140: e925 8dbc bc6e 253c 8a6b 33bc 92ad 183d
00000150: 1f32 4a3d 5de0 1d3d 212f 3c3d 36ca 30bd
00000160: 8e5b 663d a400 1a3b 1b93 333d 4db3 08bd
00000170: 4a61 823c 53f2 523d 765a da3c 8a13 7bbd
00000180: b461 c53c 0951 343c b427 5f3d 73d8 d9bb
00000190: 5eab dcbc d9b7 4e3d d73d ecbc ce11 083d
000001a0: d378 3ebd be8c 643d 82c5 24bd 67fb 843c
000001b0: 82dc 6e3d 4428 0b3c 80d5 683b 9181 943c
000001c0: 4d42 8cbc 215d 43bd a529 1cbd 1519 37bd
000001d0: 4a02 dfbc b3f5 573c 1c80 c73c b26d 933d
000001e0: 9d32 5fbd a927 36bd 6a20 1dbc 1470 d13c
000001f0: 4613 a4bc 8121 8dbb 85e9 0c3c f0ce 573d
00000200: 98e0 f3bc 0c20 09bd e880 843c fefe 40bd
00000210: e39d 5dbd 3df1 f8bc c4f0 c83c eb6b cdbc
00000220: 7b59 9fbc 82c5 65bd d927 f1bc a6d8 01bd
00000230: d873 7f3a 20be 83bc 851d a3bc 4b45 a5bc
00000240: acb3 183d ec59 f9bb 4ec6 19bd 0935 87bc
00000250: a43d 3d3c 2cf9 45bd 42fa 8cbc 6f99 7abc
00000260: c442 42bc dd9e 79bd 357f 753d 892d 003d
00000270: e3b4 41bd bf88 83bc 57ec a23c a505 cfbc
00000280: cdfc d9bc a473 583d 085a 15bc cc02 21bd
00000290: f67f 3fbd 6d01 9fbd 0034 033d cb2b 98bc
000002a0: 8b4b a2bb 98b9 493d 61f0 7ebd 8158 2dbd
000002b0: 69ae 663d 5c54 ac3c a9fc 113d f333 803d
000002c0: dda3 3cbc f0d2 233b 6099 7f3b ed78 cdbc
000002d0: 4a50 073d 3281 8bbd 2f19 9e3c 4e07 443d
000002e0: 0573 353d 008a 8fbc 2208 84bc e3cc cabc
000002f0: 71b0 9e3c aefa 563c 2810 e13b 5a7f 583d
00000300: 6ef7 163d 1752 49bc c39a 97bc bffd 403c
00000310: 3672 833d be82 94bc 51a3 b63c a31b 633d
-0.016551884 0.056878634 0.0024671166 -0.06384894 -0.021345729 -0.016083065 -0.054591067 0.039965235
-0.070759684 0.07513228 -0.059471793 0.010084231 0.027698541 0.004839929 -0.020849993 0.036315218
-0.05663521 -0.036206968 -0.015954055 -0.042839445 0.042210516 0.025245095 -0.007325373 0.0048777033
-0.026990369 0.001830637 -0.048855823 -0.041254893 -0.062356718 0.03911946 -0.051644657 0.053495992
0.020701488 0.004653729 0.0005645265 0.016304681 -0.04049921 0.044200167 -0.014002657 -0.05801917
0.038679756 0.032150332 -0.014919744 -0.003946319 -0.05453001 -0.011559845 0.04484756 -0.07208287
-0.0050354996 0.02279325 -0.052633647 -0.019610764 -0.042516347 -0.051752176 -0.014473243 0.03530707
0.036507204 -0.038633958 -0.060841143 -0.0076978803 0.012552036 -0.0009528878 -0.048372656 -0.03335553
-0.024468422 0.010993224 0.026531145 -0.031067856 0.0064250897 -0.042165868 -0.011885404 -0.06546502
-0.02890834 -0.009790412 0.046867423 0.04626538 0.026293792 -0.047980696 0.0026913318 -0.00943417
-0.017229991 0.010097202 -0.010950932 0.037274905 0.049364205 0.038544048 0.045943383 -0.043161593
0.056239657 0.0023498917 0.043841463 -0.03337412 0.015915532 0.05150063 0.026654463 -0.06129793
0.02409444 0.011005648 0.054481223 -0.006648117 -0.026937183 0.0504683 -0.028838081 0.033220105
-0.046501946 0.055798285 -0.04022742 0.01623316 0.05831576 0.008493487 0.0035527647 0.018128188
-0.017121458 -0.047696237 -0.038125653 -0.044701654 -0.027222771 0.013181138 0.02435308 0.07198657
-0.054491628 -0.044471417 -0.009590248 0.025566138 -0.020028722 -0.0043069725 0.008600597 0.052687585
-0.02977018 -0.033477828 0.016174749 -0.04711818 -0.05410565 -0.030388469 0.024528868 -0.025075873
-0.019451847 -0.05609656 -0.029437946 -0.031700753 0.000974474 -0.01608187 -0.019911537 -0.020174643
0.037280723 -0.0076095965 -0.037542634 -0.016504781 0.011550341 -0.048333332 -0.017209176 -0.0152953705
-0.0118567385 -0.06094252 0.059935767 0.031293426 -0.047291648 -0.016056417 0.019888086 -0.025271246
-0.026609803 0.05284466 -0.009115703 -0.039309308 -0.046752892 -0.07763944 0.032032013 -0.01857557
-0.004952853 0.04924926 -0.062240962 -0.042320732 0.056318674 0.02103632 0.035641346 0.062599085
-0.011513677 0.0024997555 0.003900133 -0.025082076 0.033035554 -0.068117514 0.019299118 0.04785853
0.044299144 -0.017521858 -0.01611716 -0.0247559 0.019371243 0.01312129 0.006868381 0.052855827
0.03685706 -0.012287638 -0.018506413 0.011779248 0.064182684 -0.018128749 0.022294672 0.05544628

weight f4 [4, 250]
00000000: 660a 0dbc 82e1 5fbc 63f3 08be 8d21 e03c
00000010: 74b0 8f3d 339a fdbd d733 a53c 26a1 263e
00000020: f0a2 863e dd21 e23b 95c5 4f3d 3b5d 873b
00000030: 7cbe 22bd 4c0f d4bd 6b54 9b3d 83ea 52bd
00000040: 1982 643d 300d aabd 5ebd 7d3d 75a3 f4bc
00000050: dc76 263e 35bf 34bd 2159 b0bd 10f2 b7bd
00000060: bcf4 033d 0006 9b3d 61e2 e73d c232 20be
00000070: 1986 193d 2e82 f4bc aa60 593d fb64 513d
00000080: 46d6 ce3d 1d21 28be 13de c3bc 4ebf 4bbe
00000090: 4eb0 d6bc 4b95 81ba 7652 d03d f0cd 46be
000000a0: 9f85 2abd 15f3 52bd 046f 0bbe 79ec 553e
000000b0: 400a 05be 5dd2 17bd 6e11 06be 9b64 a0bc
000000c0: e2e6 3fbd cc2c fcbd e460 90bc ac2f 12bd
000000d0: 66bb c4bc 2b30 adbc 029a 2c3c 05ca a63c
000000e0: c6b4 653b b774 a33c 7e15 8bbc db30 e23a
000000f0: 4184 ddbb 0ff0 233c 6dab ff3c 91d5 553d
00000100: cb62 a3bb 917d 543d b2ec d83c a554 c03c
00000110: 7f2f 6bbd a9d0 403d 9eba f03b d4f6 4ebc
00000120: 2ebd 1bbc 4d1b fc3b 2128 603d 6b5e 8f3c
00000130: ff20 4fbd aed3 a03c 9096 443c 5fc2 51bc
00000140: 292a 353b 77fb 70bd 7f64 b73c 99dd 603d
00000150: 41b5 6cbc 0514 fb3c 0dcf 9bbc 768b 113d
00000160: 6163 a2bd e034 6e3d 1837 353d ed2b 203c
00000170: 5468 503d 1dd2 123c 1061 7bbd c337 c03b
00000180: 5449 b03c 62da 223d 2549 22bd 8cbf 1ebc
00000190: a22b 2f3d b195 173c 9223 043d deac 68bc
000001a0: c1a8 2ebd 3226 643d e069 573d 6330 3a3c
000001b0: 33c1 44bd 2298 95bd 69d1 30bd 3ab0 4b3c
000001c0: e405 3dbd cdc5 6e3c c58a 08bd 8d74 91bb
000001d0: 648a 143d 96ed a93b c845 9bbd 5e90 473c
000001e0: c92e ddbc 6f28 18bd e38f f2bb 7698 c53b
000001f0: cce9 73bd 4e44 c4bc 06c0 d93c a32a c13c
00000200: d111 f3bc 2d63 143d 34e2 c73b ded5 c33c
00000210: aea2 75bb 7f95 81bc 6998 77bc 767b 833d
00000220: 6807 27bc 57f1 743d f3cd 283d 91b2 733b
00000230: 92a5 623d da72 8e3c ecbc 253d 12ec 433d
00000240: d791 da3c 814a 1e3c 94ea 3b3d 314c 76bd
00000250: 483d c23b 49a6 29bd 771b 1f3c 81a4 5abc
00000260: 863f 0ebd 30b1 773d ccae 173d 6167 053c
00000270: 1a5f 2f3d 820b 31bd 1e0f 7fbb c2a3 4abd
00000280: b1d3 363c fbdb 08bd 47a1 413d d46a 203d
00000290: 0f22 7ebd 22b6 33bc d721 a1ba e9a8 40bc
000002a0: 3256 37bb de04 a5bc 0b84 78ba 9a98 d6ba
000002b0: b8d0 32bd 227f 87bc 3c72 ba3c d5d3 b0ba
000002c0: 13d8 67bd 8ba6 20bc 38d0 1fbd 5ae3 41bd
000002d0: 7add 0bbd e432 bebc 30db be39 7fc8 7e3c
000002e0: 67cf d4bc 80a5 163d a77c 6e3d 307d edbc
000002f0: 3326 a9bd 5218 663c e344 8abd 99e3 cabc
00000300: 6b7a 903d def8 1fbc ca4c 563d f102 013c
00000310: 42b2 b8bc 5c68 3dbd 847e f7bc 05c3 10bb
00000320: 047c 0cbd 3331 263d 2e40 e1bc 0f25 f9bb
00000330: eb7e 19bd fbd4 ffbb 45f2 d8bb a55f 113d
00000340: a9ad 263d 8b8b 0b3d c926 5fbc 2be2 09bb
00000350: 2885 783c 0609 363d 29ab 21bd 19bb 1fbd
00000360: 8500 a9bb 46c9 853d 6f8d a3bb b4e9 40bc
00000370: 4999 0abb 2fa3 573b f418 083d 23e0 51bc
00000380: 4f10 e63c 1567 fd3b 1403 413c dfca f8bb
00000390: 9094 b23c 9ab1 a5bc 4389 7cbc ac51 bbbb
000003a0: d0c7 0cbd 412a 9fbd 581a dfbc 287e 93bd
000003b0: 11bd d6bc 1a0d 093b bf3d b5bc 8362 5d3d
000003c0: 04b9 79bc 56bf 59bd 7be6 493c 44a0 14bd
000003d0: 78a7 a73c 0fa7 483c d620 123c afd0 333d
000003e0: 3c31 983c f422 a0bd baac f1bd 88aa 803e
000003f0: 2e22 073d cd9a 703e 0a5b 5d3d a59f 823c
-0.008608436 -0.013664605 -0.13374095 0.027359748 0.07016078 -0.12382927 0.02016632 0.16272411
0.26296186 0.0069010095 0.05072554 0.004130987 -0.03973244 -0.1035448 0.07584461 -0.05149318
0.055788133 -0.083032966 0.061948173 -0.029863099 0.16256279 -0.04412766 -0.0861075 -0.08981717
0.03221582 0.07569504 0.11322475 -0.15644363 0.0374814 -0.02984723 0.0530707 0.051121693
0.10099463 -0.16418882 -0.023909604 -0.19897196 -0.026207116 -0.0009886412 0.10171978 -0.19414496
-0.041631337 -0.051501352 -0.13616568 0.20890988 -0.12992191 -0.037065852 -0.13092586 -0.019579222
-0.046851046 -0.12313232 -0.017624326 -0.035689995 -0.02401514 -0.021141132 0.010534765 0.020360002
0.0035050376 0.019953115 -0.016978022 0.0017256992 -0.0067601507 0.010005965 0.031209672 0.052205626
-0.0049861423 0.051877562 0.026480053 0.023477862 -0.057418343 0.047073994 0.0073464653 -0.012632091
-0.009505553 0.007693684 0.05472577 0.017501077 -0.050568577 0.019632187 0.0119987875 -0.012802689
0.0027643538 -0.058833566 0.022386787 0.054898832 -0.014447511 0.030649194 -0.019019628 0.03553339
-0.07929111 0.058155894 0.044241995 0.009776098 0.050880745 0.008961228 -0.061371863 0.0058660223
0.02151934 0.039759047 -0.039620537 -0.009689223 0.04276622 0.009251998 0.032260485 -0.014201371
-0.042641405 0.05570049 0.052591205 0.011364075 -0.04803581 -0.07304408 -0.04316846 0.012432152
-0.046148196 0.014573527 -0.033335466 -0.0044389428 0.036264792 0.005185793 -0.07581669 0.012180416
-0.026999848 -0.037147935 -0.0074024065 0.0060301377 -0.059549138 -0.023958351 0.026580822 0.023579901
-0.029671581 0.036227394 0.0060999636 0.02390569 -0.0037480998 -0.015818356 -0.015112021 0.06420033
-0.010194637 0.059800472 0.041212033 0.0037185291 0.05533368 0.01738875 0.040463373 0.047832556
0.02668087 0.009661318 0.045878008 -0.060131256 0.0059277155 -0.041418348 0.009711138 -0.013344885
-0.03472855 0.060471714 0.037031934 0.008142323 0.042815305 -0.043223865 -0.0038918923 -0.049472578
0.01115887 -0.033412915 0.047272947 0.03916438 -0.0620442 -0.010968717 -0.001229341 -0.011759021
-0.002797496 -0.020143922 -0.0009480125 -0.0016372383 -0.04365608 -0.016540114 0.02275955 -0.0013490865
-0.05660255 -0.009805332 -0.039016932 -0.04733596 -0.034146763 -0.023217626 0.0003640293 0.015550732
-0.025977803 0.036778927 0.058224346 -0.028990358 -0.08259239 0.014043884 -0.0675142 -0.02476673
0.070545994 -0.009763924 0.052319326 0.007874236 -0.022545937 -0.046242103 -0.030211695 -0.0022088897
-0.034297958 0.040574264 -0.027496424 -0.0076032947 -0.037474554 -0.0078073717 -0.0066206777 0.035491604
0.04069296 0.034068625 -0.013620087 -0.0021039348 0.015168466 0.0444422 -0.03946987 -0.03899679
-0.0051575326 0.065325305 -0.0049912254 -0.011774469 -0.0021148494 0.0032903661 0.033226922 -0.012809786
0.028083948 0.0077332356 0.011780519 -0.0075925435 0.021799356 -0.020226289 -0.015413585 -0.005716523
-0.034370244 -0.07771731 -0.027234241 -0.07201797 -0.0262132 0.002091235 -0.02212417 0.054049026
-0.015241865 -0.053160988 0.012323017 -0.036285654 0.020465598 0.012246861 0.0089189615 0.043900188
0.018578164 -0.07819167 -0.11800523 0.25130105 0.03299158 0.23496552 0.0540419 0.015945265

bias f4 [4]
00000000: 6ec2 d43b a1f9 a1bc c16f 23bd 892c bdbc
0.0064929044 -0.019772353 -0.0399015 -0.023092525
