results/rnn_tc/rnn_tc_50d.1115.pt (torch_old, 209277 bytes, 4 tensors)

weight f4 [200, 250]
000000 3e b4 75 bc 38 bd 2e 3d 89 4f aa bc b3 eb 19 3d
       -0.014996586 0.04266092 -0.020789878 0.037578296
000010 46 0c 06 3c 22 47 40 3d b4 58 be bc 15 2a 36 bd
       0.008181637 0.046942838 -0.023235656 -0.044473726
000020 5b 1e 5e bd 59 b3 74 bd d7 3f a0 bc 9c 39 2e 3d
       -0.054228168 -0.05974135 -0.019561691 0.04253541
000030 59 01 64 3d dd 9a 62 bd e9 7c 5e 3d b4 61 19 bb
       0.055665348 -0.05532347 0.054318342 -0.0023404183
000040 07 51 f0 3b 80 b1 7b bc 10 83 5b bd c9 3f 79 bd
       0.007333878 -0.0153621435 -0.053591788 -0.060851846
000050 72 10 06 bd 93 f1 4a bc bd f1 11 3d fd 17 3f bd
       -0.032730527 -0.012386697 0.03563093 -0.046653736
000060 87 eb 92 bc d0 38 4a bd d5 a6 2f 3d 6d c9 bd 3c
       -0.017934574 -0.049370587 0.042883713 0.023167336
000070 32 80 14 bd d5 8e 65 bc 3d c5 62 bd 5d 07 4c 3d
       -0.03625507 -0.014011105 -0.055363882 0.04981171
000080 1b 87 36 3d 1b ab b2 bc 1a df 4e bd 3f 03 b8 bc
       0.04456244 -0.021810105 -0.050505735 -0.022462485
000090 36 3b 8a 3c 4a 58 66 3c 6b 60 b9 bb 5f 7d c4 3b
       0.016873937 0.014059136 -0.005657246 0.0059963907
0000a0 d0 45 e5 3c e7 67 86 3c c9 6c 3d 3d 36 a6 f1 3c
       0.02798739 0.016406966 0.046246324 0.0294982
0000b0 89 4e de bb 68 0a 6d bd 7c 63 78 bd 39 b4 3e bd
       -0.0067842645 -0.057871252 -0.06064175 -0.046558592
0000c0 3b a7 42 3d 1d 3e b4 bc a3 49 06 3d 72 a6 38 bc
       0.047522765 -0.022002274 0.03278507 -0.011270152
0000d0 75 4a 76 bd fd a0 a8 ba 88 d9 4d bb b3 dc 3e bc
       -0.0601296 -0.0012865361 -0.0031410176 -0.0116492985
0000e0 42 05 44 3d 36 58 17 3c 2c ce 4f 3c fc 2a 78 bd
       0.047856577 0.00923734 0.012683433 -0.060587868
0000f0 6d 62 aa bc 62 d3 2a bc 75 c5 24 3c da 99 76 bd
       -0.020798886 -0.010426374 0.010056843 -0.060205318
000100 9a 8d d8 3c 0e 09 a6 bb ad 91 57 3d cd 76 fc ba
       0.026434708 -0.0050669974 0.05262916 -0.001926148
000110 1a 1c 8b bb 3a f0 47 3d 83 e7 eb 3b 0c a7 4d bd
       -0.0042452933 0.048813082 0.007199229 -0.050208136
000120 7f b4 30 3d 7b bb 4b bc 08 95 cb ba 5c 0d b6 3c
       0.043140884 -0.012434836 -0.0015532086 0.022223167
000130 67 6a 2d 39 52 10 26 3d 70 1e 28 bd 94 37 a9 3c
       0.00016538204 0.040542908 -0.041044652 0.020656385
000140 33 31 c2 bb 11 5d 31 3d 19 7c 3f bd 88 fb 6b bc
       -0.005926275 0.043301646 -0.046749208 -0.014403231
000150 c7 9b 24 3d d8 d5 9d bc f6 d6 38 3d 78 e0 fe 3c
       0.040187623 -0.019267008 0.045126878 0.031112894
000160 66 70 94 3c 48 ae f8 3b 1c 3f e8 3c 88 f0 17 bd
       0.018120002 0.0075891353 0.028350405 -0.037094623
000170 0c 05 67 bd a0 a5 ee 3b 58 3f 92 3b 25 63 86 bc
       -0.056401297 0.0072829276 0.0044631176 -0.016404698
000180 28 b1 6c 3d ad 27 1f 3c 42 b8 c6 bc 7d 8b eb bc
       0.057786137 0.009714049 -0.024257783 -0.028753037
000190 57 ec 12 3d 64 84 d1 bc 33 ba 3e bd 69 ad e9 3c
       0.035869922 -0.025575824 -0.046564292 0.028525071
0001a0 dd ea f3 bc 53 91 60 bd b6 c6 15 bd c5 f4 1d 3d
       -0.029775077 -0.054826092 -0.03656646 0.03856351
0001b0 9e e3 93 3c 11 87 1b bd 8f ef 2c 3d df e7 18 bd
       0.018052872 -0.037970606 0.04222065 -0.037330505
0001c0 57 b4 26 bd 78 0a 43 3d 6e 5b 99 bc 13 a3 5d 3d
       -0.04069933 0.047617406 -0.018720355 0.054110598
0001d0 75 ff e0 3c a5 58 3d 3d 7e ba 6f 3d a8 56 3b 3d
       0.027465561 0.046227116 0.058527462 0.04573694
0001e0 42 bd d0 bc 13 b3 6e 3d ef 62 50 bc 2c 1b 45 bd
       -0.02548087 0.058276247 -0.0127189 -0.048121616
0001f0 80 80 4f 3d 95 be d5 bb 12 6c 11 bd d6 a1 37 bd
       0.050659657 -0.0065229633 -0.035503455 -0.044832073
000200 f9 56 bb 3c 98 73 e8 3c 01 0f 57 3d d0 34 71 3d
       0.02286862 0.028375432 0.052504543 0.058888257
000210 29 95 6f bd cf ae 42 bd 42 fb 7a bd 6c 8c 0b bb
       -0.05849186 -0.04752999 -0.061274774 -0.0021293415
000220 83 f0 78 3d 50 21 b5 3c 65 c0 03 bd f0 31 2b 3d
       0.060776245 0.022110611 -0.032165904 0.04179567
000230 e1 23 05 3d 2a 02 6c 3d a6 fe 56 bd f9 e0 09 bc
       0.03250492 0.05761925 -0.052488945 -0.008415454
000240 58 4b 28 bd fd 89 9a bc b4 20 c4 bc 0c 35 45 bd
       -0.04108748 -0.018864626 -0.023941375 -0.048146293
000250 c6 aa 67 3b 07 2e 82 bc b5 cb 69 3d 9a 29 c4 3c
       0.0035349592 -0.015891088 0.057079036 0.023945618
000260 48 65 3b bd 1b c0 56 3d 5d 23 e8 bc d9 47 61 bc
       -0.045750886 0.0524293 -0.028337175 -0.01375004
000270 a7 ab 14 3a 89 92 f7 bb 2b 0d ea 3c 0a bf 3b 3c
       0.000567133 -0.00755531 0.028570732 0.0114591215
000280 4f 60 0c bc 34 0f 67 bd 97 b1 43 3d d5 24 9e 3c
       -0.008567884 -0.056410983 0.047776785 0.019304672
000290 ec e6 db bc c5 cc c5 39 4b 08 39 bd ba c2 20 3b
       -0.02684351 0.00037727333 -0.045173924 0.0024530129
0002a0 6d 5b 24 3d 02 d8 5f bd c3 21 bb 3c ed a8 1c 3c
       0.040126253 -0.05464936 0.022843247 0.009561759
0002b0 6d 1a 82 bd e1 95 f6 3c 4b 88 b8 bc 0a 61 dc 3a
       -0.063526966 0.030100765 -0.022525927 0.0016813588
0002c0 59 a6 7e bd 51 b3 10 3c 86 3a 64 3b d9 ec 54 bc
       -0.06217036 0.008831815 0.0034824922 -0.012995922
0002d0 f0 0e f9 3c 4c e0 27 bd ae 45 81 3d c9 40 8a 3b
       0.03040263 -0.04098539 0.063121185 0.004219149
0002e0 a0 49 81 bd 8b 52 39 3d 89 ec 25 bd 79 5c 32 3d
       -0.06312871 0.045244735 -0.04050878 0.04354522
0002f0 06 b5 0f 3d 16 ba 59 bd 11 9e 27 3d ed a2 6d bd
       0.035084747 -0.05315598 0.04092223 -0.058016706
000300 c3 76 58 3c 14 dd 61 bd 4f 0d 98 3c 86 49 ab bb
       0.013211909 -0.055142477 0.018561034 -0.0052272705
000310 8b ac 50 3d e1 47 5f 3c f3 8c 83 bd 13 fd 41 3d
       0.0509458 0.013627977 -0.06423368 0.04736049
000320 97 c5 14 3d 21 af 6c bd 8c b2 a1 bc da e5 8e bb
       0.03632125 -0.057784203 -0.019738458 -0.0043608965
000330 66 6c ca 3c 46 50 f3 bc 93 0f 83 bd 17 a5 03 3b
       0.024709892 -0.029701363 -0.06399455 0.0020087415
000340 61 39 7f 3c bd 09 26 bd 39 35 0c bc 09 ba 21 bd
       0.015577645 -0.04053663 -0.008557611 -0.039484058
000350 76 4b 81 bd 33 7f 1b bd a7 d9 0b 3d 13 80 30 bd
       -0.06313221 -0.037963104 0.034143116 -0.04309089
000360 8e 1c 25 3d bc 82 8a bc 41 db 33 3c 3f 40 7f bd
       0.040310435 -0.016908042 0.010977567 -0.06231713
000370 1e 7e dc 3b 52 83 16 3a eb 1a bb 3b 97 c5 f4 bb
       0.0067289015 0.0005741614 0.005709996 -0.0074698436
000380 00 f6 e5 3c e5 8e 29 bd 15 e6 40 bd 9e be 4e bc
       0.028071404 -0.04139604 -0.047094423 -0.012618689
000390 4d ab 7a bd 19 75 88 bd 14 90 2a bd c6 92 44 bd
       -0.06119852 -0.066629596 -0.04164131 -0.047991537
0003a0 74 1c 76 bd 07 a6 d6 3c 09 0b 18 bd b4 05 1e bd
       -0.06008573 0.026202215 -0.0371199 -0.038579658
0003b0 27 2d 1d bc 8f ea 24 bd 73 85 06 bd 18 a9 11 3b
       -0.009593285 -0.040262755 -0.03284211 0.0022226032
0003c0 6c 1b a8 3c 26 c1 43 bc ed dd ab bc 3b 07 c6 3b
       0.020520888 -0.011947906 -0.020979846 0.0060433424
0003d0 f5 33 c2 bc 2a 6a 80 3d cd f9 3a bd 08 03 29 3d
       -0.023706416 0.06270249 -0.045648385 0.041262656
0003e0 0a c7 31 3d a3 60 51 bd 08 f4 b1 bc c2 d0 84 3b
       0.04340271 -0.05111755 -0.021722808 0.004053206
0003f0 35 e2 02 3d 62 b4 40 bd c8 8c bf 3b 89 fb b0 3c
       0.03195401 -0.047047026 0.00584564 0.021604316

bias f4 [200]
000000 36 0b 40 3d 56 7e 7a 3c 43 d2 45 bc 72 0a 3e 3c
       0.04688569 0.01528891 -0.012074056 0.01159917
000010 44 d4 b7 bc 4b 03 1a bd 88 4c be bc 9a 39 51 3d
       -0.022440083 -0.037600797 -0.023229852 0.051080324
000020 44 d0 89 bc 7f af fd 3c 12 fe 52 bd a1 e6 e1 bb
       -0.016822942 0.030967472 -0.05151183 -0.006893948
000030 5d dc 64 3d 6b d3 84 bc 89 e5 ca bc f7 fa 64 bd
       0.055874217 -0.016214093 -0.024767654 -0.0559034
000040 39 09 9b 3c 3a b5 c2 3c 8a 48 82 3c b7 53 dc 3c
       0.018925296 0.023768056 0.01590373 0.026895387
000050 8c 4f f2 bc d5 97 f1 3c c2 96 24 3d 61 dd 56 bd
       -0.029578947 0.029491344 0.040182836 -0.052457217
000060 bb 46 73 bd 87 ef a8 3c 3b 35 35 bd 58 b0 82 bc
       -0.059393626 0.020622028 -0.044240218 -0.015953228
000070 f1 9a 53 3d ac b7 ce 3c 73 f5 55 3d 55 67 dd 3c
       0.051661436 0.025234066 0.05223603 0.027026812
000080 33 c2 c4 bc 00 ac 17 3d 2a ed 79 bc 2a 10 3d bd
       -0.024018383 0.037029266 -0.015254298 -0.046157993
000090 30 90 ec 3c d0 84 1c 3d 3e f3 ca bb cf 0f f5 3b
       0.028877348 0.038212597 -0.0061935475 0.007478691
0000a0 53 f4 9f 3c 7b 2b 37 3b f2 8a 1f 3c 9a 2d 09 3d
       0.019525683 0.00279495 0.009737717 0.033490755
0000b0 2f fd e8 bc 9a 42 71 3d 62 1f 38 bb c8 a2 14 3d
       -0.02844104 0.058901407 -0.0028094877 0.036288053
0000c0 fb dd ed bc 98 7c 11 3d 43 4f 09 3d b0 cc 30 bd
       -0.029036513 0.035519212 0.033522855 -0.043163955
0000d0 00 a6 0d 3d cd 62 4d bd 71 c6 ce bc e4 0b 75 bd
       0.034582138 -0.050143052 -0.025241109 -0.059825793
0000e0 86 93 b2 bc 77 10 40 3d 26 06 68 bb c7 11 a8 3c
       -0.02179886 0.046890702 -0.0035404055 0.02051629
0000f0 15 68 5d 3d 8d 30 57 bd 31 b0 d4 bc b1 fd 5d bc
       0.05405434 -0.052536536 -0.02596292 -0.013549254
000100 4a d1 88 3b f8 44 36 3c c9 0d 3d bd d9 af 0b 3d
       0.00417534 0.011124842 -0.046155725 0.03410325
000110 3c d0 be 3b ef fd d7 3b 5c 8f 9b 3c b2 ff 02 bd
       0.0058231633 0.0065915505 0.018989258 -0.03198213
000120 25 97 c8 3c 21 3c 35 3d 77 27 3c 3c 6b dc 13 3d
       0.024486134 0.044246797 0.0114840185 0.03609888
000130 dc 46 c2 ba 37 3e bd bc e5 99 68 bc 97 05 58 3d
       -0.0014822143 -0.023100955 -0.014196848 0.052739706
000140 9f f7 05 bd 0f 8a ec bc e6 c5 2e 3d 38 6c c6 bc
       -0.032706853 -0.028874425 0.0426692 -0.024221525
000150 ec 14 1b bb d9 5a 3c bd 95 12 fe 3c 4c 7f e5 3b
       -0.0023663593 -0.045985077 0.03101472 0.0070037004
000160 2d 9e a2 bc 6b af 1b 3d 85 d7 74 3d 5a 0e 87 bc
       -0.019850815 0.03800909 0.059775848 -0.016486336
000170 ff 76 8d 3c ad 95 4e bd e7 7d 5c 3d 22 bc 81 bc
       0.017268656 -0.05043571 0.053831007 -0.015836779
000180 ec 97 73 3d 76 6c 03 bd 56 01 0c bc 87 31 f0 3c
       0.059471056 -0.03208586 -0.00854524 0.029320491
000190 43 da 0f bd 2f cb 70 bc e7 a7 69 bd 68 04 2a 3d
       -0.03512026 -0.01469688 -0.05704489 0.04150811
0001a0 db 6d f5 3b f7 71 d1 3c 33 ce 15 bc 71 23 db 3a
       0.0074899024 0.025567038 -0.0091434 0.0016718936
0001b0 e4 8f 8f 3c a0 c3 21 bd c3 ba 2d bd 7e cc cf 3c
       0.017524667 -0.039493203 -0.042414438 0.025366064
0001c0 4d 6e 3d 3c 5c 4e 54 bd 89 5b b4 bc c9 3e cf bc
       0.011561942 -0.05183254 -0.022016304 -0.025298493
0001d0 a9 ae 78 bd 77 88 0d bd 46 9c 2e bd 83 87 6c 3c
       -0.060713444 -0.03455397 -0.042629503 0.014436605
0001e0 0c f4 92 3c 0b e4 7d 3d 14 c0 44 bd 59 9f 26 3d
       0.017938636 0.061985057 -0.048034742 0.04067931
0001f0 6f 7d 43 bd 7b 3b 1d 3c 6a 1b f1 3c 91 a3 77 3d
       -0.047727045 0.009596701 0.029432017 0.060458723
000200 f9 80 9e 3c 50 8e a5 bc 35 17 42 3c 25 1a 57 bc
       0.019348608 -0.020209461 0.011846353 -0.013128792
000210 e5 d4 1f bc e0 77 90 3c fc 05 27 bc 21 e5 10 3d
       -0.009755348 0.017635286 -0.010194298 0.035374764
000220 20 df c9 3b fc 6e 24 bd c3 fe c0 b9 a1 c8 73 bd
       0.006160632 -0.040144905 -0.00036810906 -0.059517507
000230 7c a5 9d ba 5c 8b 42 3d 7f 1c 70 bd 3d c9 ff 3c
       -0.0012027468 0.047496185 -0.058620926 0.031223888
000240 13 7b 29 3d bb c7 45 3d 1e f2 88 3b c8 b8 11 3d
       0.04137714 0.04828618 0.0041792532 0.03557661
000250 a2 95 b5 3b 90 c2 17 bd b7 03 5f 3d cd 77 88 3c
       0.0055415193 -0.037050784 0.054446902 0.016658688
000260 54 2a 29 bd 15 a9 9e bc 97 65 7b bc e1 cf 7d 3d
       -0.041300133 -0.019367734 -0.015344045 0.061965827
000270 df 01 84 3c bd ec 09 bd dd a4 19 3d f9 d7 0f 3d
       0.016114173 -0.033673037 0.03751074 0.035118077
000280 cf f9 7a 3d b6 d7 14 bc 44 6c 7b bd ca 21 1b 3d
       0.061273392 -0.009084633 -0.061382547 0.03787402
000290 3a 8e fc bb 6b 42 f1 ba 82 d9 4e 3d c5 09 7c 3c
       -0.0077073844 -0.0018406635 0.0505004 0.015383189
0002a0 4f 18 11 bd fa d6 6b bd 4c 0d 52 bd f0 04 75 bd
       -0.035423573 -0.057578065 -0.051282212 -0.059819162
0002b0 49 9f 41 bb f6 b2 7f bd dc d8 02 3c 4a 3d 1f bd
       -0.0029544404 -0.06242653 0.007986274 -0.03887681
0002c0 e0 d8 dc bb a8 8d 54 3d b9 a6 54 3c cc 0f d5 3c
       -0.0067397207 0.051892906 0.012979203 0.02600851
0002d0 fb 85 f5 3c dd 12 e2 3a 48 fc 3d 3d b7 24 54 3d
       0.029971113 0.0017248053 0.046383172 0.051792827
0002e0 f8 72 d5 bc 68 db 93 3c 8e ff 0a bc a6 2e 46 bd
       -0.026055798 0.018048957 -0.008483781 -0.04838433
0002f0 4a ce 4d bd 96 36 34 3c 06 80 0e 3d 56 26 53 3c
       -0.05024556 0.010999342 0.03479006 0.012887558
000300 a1 cf 99 bb f3 03 1c bd e0 85 7b 3d d6 6e 3f 3d
       -0.0046939407 -0.038089704 0.06140697 0.04673656
000310 7f ca da bc f5 33 f1 3c 84 5a 66 3c 35 5c 17 bd
       -0.026707886 0.02944372 0.014059667 -0.03695317

weight f4 [4, 250]
000000 aa 5c e7 bb bf 6a 3d bd 19 85 53 3d a1 2c 48 bd
       -0.007060607 -0.04624438 0.051640604 -0.048870686
000010 c6 c8 37 3d 35 26 c7 3c 20 f2 5f bd 8b 95 7e 3d
       0.044869207 0.02431021 -0.054674268 0.062154334
000020 be e6 22 bd 40 49 16 bc 1c 60 3a 3d 99 16 1a bd
       -0.039770834 -0.009172738 0.045501813 -0.037619207
000030 e1 87 4a bd 1d 0d 24 bd 91 27 71 bd 90 d1 7a bd
       -0.04944599 -0.04005157 -0.058875624 -0.06123501
000040 8c dc 0a bd a8 1a 86 bc 04 7f 03 3d 4b 26 f2 3c
       -0.033901736 -0.016370133 0.032103553 0.029559275
000050 bf f9 81 3c 72 91 6a bd 8e aa 99 bc 42 41 56 3d
       0.015866159 -0.057267614 -0.018758085 0.05230833
000060 78 98 a0 3c 14 11 36 bd 8b 42 14 bc 41 01 a4 bc
       0.019603953 -0.04444988 -0.009049068 -0.02002013
000070 39 6b 18 3c 5b 61 4e bb d3 ff 03 bd 7c 62 4a 3d
       0.009302908 -0.0031491134 -0.032226395 0.04941033
000080 aa 96 72 3d 5e 76 0f bc 48 98 6c bd 92 d5 5f 3d
       0.059225716 -0.008756248 -0.057762414 0.054647036
000090 1b 09 9b bc 82 06 56 bd 17 13 30 3d 5c ec 49 3d
       -0.01892524 -0.0522523 0.042986955 0.049297675
0000a0 d3 70 34 3d 5a 82 48 bb 69 9a 74 bd 66 7e 7f 3d
       0.04405291 -0.0030595274 -0.05971757 0.062376402
0000b0 28 e9 ec 3c fb 1f a8 3c f0 a6 2e 3c 49 5e 5c 3d
       0.028919771 0.020523062 0.010659918 0.053800855
0000c0 39 db 2e bc cf 02 a0 bb 3d 17 23 3d 01 15 3b 3c
       -0.010672384 -0.0048831473 0.039817084 0.011418582
0000d0 b2 be 41 bd 71 e2 6f 3c b9 59 56 3d 26 fd 4e 3d
       -0.047301 0.01464139 0.05233166 0.05053439
0000e0 29 01 93 ba 1b fe 6c bd 53 8d 9f 3c 24 93 2b 3d
       -0.0011215556 -0.05785952 0.019476568 0.04188837
0000f0 7e 71 4a 3b aa a8 3f bd 44 f3 53 bd fe c6 62 bd
       0.00308904 -0.04679171 -0.051745668 -0.055365555
000100 8a f3 69 bc 05 26 a0 bb d5 9e bc bb f7 97 7d bd
       -0.014279256 -0.004887345 -0.005756239 -0.061912503
000110 ee 7a d6 3c 7a f1 45 b9 a3 d2 17 3b 03 ea 84 3c
       0.026181664 -0.00018877341 0.002316632 0.016224867
000120 a7 07 fe bc a3 87 2d 3d c9 c4 1b bd 43 48 4e bd
       -0.031009508 0.04236568 -0.038029466 -0.050361883
000130 ff 22 ed bc 88 27 f1 3c 1d 90 02 bd e0 f3 3e 3d
       -0.028947352 0.029437795 -0.03187572 0.046619296
000140 fc 74 82 bd 5f ec 2a bc 66 6e 0b bd ba 1a 46 3c
       -0.06369969 -0.010432332 -0.03404083 0.012091333
000150 8f 7a 25 bd 1b 72 64 bd 4b 7b 5c bc f9 69 1a 3d
       -0.040400084 -0.055772882 -0.01345713 0.03769872
000160 25 51 41 3d 16 70 5b bd b8 b8 21 bc 9d 7b b5 3b
       0.047196526 -0.05357369 -0.009870701 0.0055384175
000170 62 c0 60 3d 36 24 45 bc 65 89 6f bd c5 da 7a 3d
       0.05487097 -0.012032559 -0.05848064 0.06124379
000180 54 99 90 bc 09 f5 51 bc e6 54 8f 3c 20 14 0a 3d
       -0.017651238 -0.012814769 0.017496537 0.0337106
000190 f9 06 c2 3c e1 e9 47 bd 0a 45 e7 3b 47 b7 33 bc
       0.023684965 -0.04880703 0.0070577906 -0.01096899
0001a0 da 7a 0b bd b8 e7 2f 3d 5c 90 40 3d 37 fb 40 bd
       -0.034052707 0.042945594 0.04701267 -0.047114577
0001b0 7b 95 af bb 32 72 3c bd 58 aa bd bc c1 9b 24 bd
       -0.0053583956 -0.046007343 -0.023152515 -0.0401876
0001c0 0a 36 25 3c 48 3e 57 bd dc a6 6f 3d e6 ef 3b 3c
       0.010083685 -0.05254963 0.05850874 0.01147077
0001d0 bb da be 3c a3 23 c9 3c fb 05 d7 bc c5 7a 82 bc
       0.023297658 0.024553126 -0.026247969 -0.015927682
0001e0 10 c3 14 3d ae e4 84 3c 6f 6b e9 bc 7c 5d 6a bc
       0.03631884 0.016222324 -0.028493611 -0.014304515
0001f0 30 bb 0b 3c 1d 70 17 3c f3 39 67 3d 67 df 04 3d
       0.008528516 0.0092430385 0.05645175 0.032439616
000200 a1 09 0b 3d a4 53 00 3d f0 3c fc bc f2 9c 43 3d
       0.03394473 0.031329766 -0.030790776 0.047757097
000210 26 9a 9e bc 35 c0 bc bc cf e5 23 bd 7d 7e 75 bd
       -0.019360613 -0.02304087 -0.040014084 -0.05993508
000220 14 4d 29 bd d8 1b 09 bd e7 d6 0a 3d 5f fb 87 bc
       -0.041333273 -0.03347382 0.033896353 -0.016599355
000230 d8 cc 7d bd 27 5e 70 3c ad ab 1a bc fb dc 23 bd
       -0.061962932 0.014670885 -0.009440345 -0.040005665
000240 42 70 15 3d 0b 5a 67 bd 6f 80 7a 3d 87 6f c1 3b
       0.03648401 -0.056482356 0.06115764 0.0059031877
000250 c2 75 26 3d ad cf 8d 3c 79 d5 4b bd fd e6 86 3c
       0.040639646 0.017310942 -0.04976413 0.016467566
000260 d8 6c 2e 3d c3 2d 04 3d b5 df d2 bc ee 80 16 3d
       0.04258427 0.032270204 -0.025741437 0.03674405
000270 d2 67 00 bd f8 2f 3c 3d 53 24 3e 3d 54 2b 71 bc
       -0.03134901 0.045944184 0.04642136 -0.014719803
000280 e4 d9 7c bd 6c f2 1b bd b8 f9 62 3c 37 13 5d bd
       -0.061731234 -0.03807299 0.013853483 -0.053973403
000290 0d d8 0c 3d 5d b6 96 bc cd 88 c0 3c af 0d 0e bc
       0.03438573 -0.018397504 0.023502732 -0.008670255
0002a0 af 71 59 bc 60 c9 5c 3d fc 0a aa 3b fb c8 0a 3d
       -0.013271733 0.053902984 0.0051892977 0.033883076
0002b0 41 d3 d7 bc 5b af 60 bc 1a eb 9a 3b 1a 5f 63 3c
       -0.02634585 -0.013713683 0.0047277333 0.013877654
0002c0 06 c4 ed 3c e8 a1 6b bd cd 6a 3a 3b 6b e5 64 3d
       0.029024135 -0.057527453 0.0028445006 0.055882853
0002d0 37 99 46 3d 15 00 69 3c 64 13 68 bb 0a bf cd 3b
       0.04848596 0.014221211 -0.0035411948 0.006278877
0002e0 03 1e d6 3b ae db 6b bc ff af 29 bc 02 04 03 bd
       0.0065343394 -0.014395637 -0.010356902 -0.031986244
0002f0 42 98 66 3c d3 ed 32 bd d3 23 9f 3a 3b 23 f2 bc
       0.014074387 -0.043683838 0.0012141414 -0.029557815
000300 a9 a7 10 3d c6 4c 6b 3c 77 67 01 bd db e7 4d bd
       0.035316143 0.014361566 -0.031592812 -0.050269943
000310 aa 96 b7 3b 6b da 1a 3d 31 c6 f8 bc f5 74 fc bc
       0.0056026774 0.037805956 -0.030367943 -0.030817488
000320 32 28 19 bc 14 99 89 3c 4b cf 10 bd 84 2a 0c 3c
       -0.009347962 0.016796626 -0.03535394 0.008555058
000330 97 9e 41 bd 4b d6 28 bd e0 ea 2a bd 3f ed b2 3c
       -0.047270384 -0.04121999 -0.0417279 0.021841643
000340 47 ad 0d bd 78 03 5b 3b 60 cf 68 3d a2 01 4b bd
       -0.03458908 0.0033418816 0.056838393 -0.049562104
000350 52 31 81 bc b1 72 44 3d 30 f2 7f bd 0b fc 35 bd
       -0.015770588 0.04796094 -0.062486827 -0.04442982
000360 b9 cf 31 3d 51 97 1a 3d c9 8f 4e bd 5a 5e fc 3c
       0.04341099 0.037741963 -0.050430093 0.03080671
000370 3d dd d9 bc 2d 02 71 bd 17 66 5a 3d bd 1b 20 bd
       -0.026594752 -0.058839966 0.053320017 -0.039088953
000380 c6 dd 7a 3c 5c 51 84 3d 9e b5 07 3c 23 3e fc 3a
       0.015311664 0.064608306 0.008283047 0.0019244592
000390 d8 7a 40 bd c9 09 3c bd 2d b1 a6 bc 27 e0 75 3d
       -0.046992153 -0.04590777 -0.020348156 0.06002822
0003a0 53 b2 f6 3c 7b 5f 0c 3d d4 53 0c 3d 26 12 38 3d
       0.030114328 0.034270745 0.034259632 0.044939183
0003b0 47 64 fc 3b 56 8e d0 3b ff 18 62 3d 28 71 72 bd
       0.0077023837 0.006364624 0.05519962 -0.059189945
0003c0 a4 93 57 3d 54 ed 08 3b ce e1 4a bd 40 fc ec 3c
       0.052631035 0.0020893412 -0.04953175 0.028928876
0003d0 cd f9 c8 3c 86 92 22 bd d3 29 2a 3d f4 ce c6 bc
       0.024533177 -0.039690517 0.041543793 -0.024268605
0003e0 fa 60 d1 3c 80 2d 4e 3d 42 bf fe bc 47 5d 26 bd
       0.025558937 0.05033636 -0.031097058 -0.0406163
0003f0 fb d2 3d bc 9e 0f 34 ba de a5 5b 3d 1f 34 87 bc
       -0.011585946 -0.0006868782 0.05362498 -0.016504345

bias f4 [4]
000000 4f 74 ea bc 56 53 0f bc c1 66 34 3d c7 6e 25 3d
       -0.028619913 -0.008747896 0.044043306 0.04038885
