results/rnn_tc/rnn_tc_100d.pt (torch_old, 250083 bytes, 4 tensors)

weight f4 [200, 300]
-0.006727991 0.029761136 0.011847246 -0.011572127 -0.06761589 0.01706833 0.04110459 -0.009243145
0.0071667866 0.022046918 0.023425587 0.04940366 -0.009253735 -0.03250824 0.023456566 0.05210115
-0.052252542 0.019841325 -0.019586256 0.03456278 -0.041726083 -0.02790835 -0.039858546 0.041308265
0.026085963 0.013716363 0.002662597 -0.079140104 -0.026872344 -0.009948638 0.026930522 0.072015285
0.011185194 -0.032638878 -0.05748868 -0.010910889 0.050898537 -0.040676802 0.057546902 0.021123191
0.0035901077 0.02564906 0.038318984 0.006217206 0.020817181 -0.019338941 -0.050633993 0.011691143
-0.030529289 0.02943533 0.0029312053 0.006249805 0.0046275808 0.027457226 -0.04908235 0.010500719
-0.008974303 0.051909823 0.029320605 -0.018661873 -0.03914892 -0.01598788 -0.052583184 0.039015654
-0.032963336 -0.028234113 0.013667799 -0.057949927 -0.04029848 -0.011942288 -0.012453537 0.004543676
0.021410594 -0.027795307 -0.03960538 0.05368163 0.02244838 0.0040794434 -0.022838768 -0.054893237
-0.015059674 -0.002566995 -0.026794553 0.047015354 0.012397934 0.075599395 -0.02979353 0.024613457
-0.0125039695 -0.05840966 -0.031865474 -0.062251862 -0.06535461 -0.03234247 0.013065191 -0.018246027
0.02537731 0.02487485 0.025562676 0.0022033749 -0.042921513 -0.037067503 0.032098874 0.010174957
0.020393152 -0.029580595 0.011495613 0.017583253 0.006205787 0.025602061 -0.04405216 -0.0051507843
-0.005172657 0.02132521 0.06796198 0.027190303 -0.040344942 -0.015914468 0.016262565 0.031229114
-0.04861446 -0.051135365 -0.047471207 -0.031440623 0.047133625 -0.024549242 -0.05142999 0.007898667
-0.027310232 0.0049559283 -0.055162698 -0.055438478 -0.035154648 -0.012415883 -0.06632969 -0.02192876
0.0321184 0.03556844 -0.03943911 0.041495215 0.021741351 0.016993497 0.036152806 -0.0289056
-0.04292267 -0.02997569 0.027756957 -0.0057849777 0.040531136 0.05509155 0.049483985 -0.0002588778
0.016152592 -0.03157725 -0.00911917 -0.0063725547 -0.040900126 -0.027330594 0.019291624 0.054702975
-0.065011024 -0.039840765 -0.019510671 0.0012860589 -0.037621718 -0.017677167 0.06508797 0.0041072676
-0.011876984 -0.009270317 0.00015733547 -0.018274156 -0.006250091 0.031827327 -0.014133776 0.0077564334
0.027776606 -0.012016258 0.05371376 0.029125854 0.013712084 -0.01955851 -0.030770924 -0.03610343
-0.056132086 0.007296687 0.0474904 -0.00018590018 -0.009717806 -0.003028445 0.04668607 -0.045232784
0.06378564 0.03472719 -0.014501515 0.01720142 0.058087613 -0.024020849 0.015838124 -0.032016955
-0.06393377 -0.009755892 0.019099016 -0.021154536 -0.0061400165 0.045755472 0.04464437 -0.015733326
0.024060106 -0.044961292 -0.016407525 -0.028418623 0.037758555 0.035093695 -0.055291105 0.0049798605
-0.01112436 0.012167263 0.022033976 -0.051526938 -0.02124659 -0.0020563777 -0.04432017 0.06406362
-0.047201805 0.023397215 0.045113184 0.03769118 0.005705584 0.043580826 0.045196217 -0.033563502
-0.015624667 -0.023926927 0.025117049 -0.0033876388 -0.020626409 -0.051673993 -0.04911104 0.0025637068
0.016926704 0.048099753 -0.041855667 -0.04668756 0.024122976 0.019029625 -0.013568161 -0.0137144625
-0.032494668 -0.050860096 0.02306139 0.03803661 0.06054948 0.0051719807 -0.045820933 0.004893484
00000000: 7b76 dcbb a0cd f33c f41a 423c 0599 3dbc
00000010: 337a 8abd e2d2 8b3c 495d 283d 8f70 17bc
00000020: 5dd7 ea3b bd9b b43c 04e7 bf3c 7e5b 4a3d
00000030: fa9c 17bc 5c27 05bd fc27 c03c 0468 553d
00000040: c306 56bd 468a a23c 5b73 a0bc b491 0d3d
00000050: f8e8 2abd 0da0 e4bc b742 23bd db32 293d
00000060: 3bb2 d53c 99ba 603c f77e 2e3b 3514 a2bd
00000070: 6423 dcbc 9dff 22bc 669d dc3c c07c 933d
00000080: 1b42 373c 58b0 05bd 4079 6bbd 96c3 32bc
00000090: fc7a 503d b89c 26bd 4db6 6b3d 8b0a ad3c
000000a0: 0348 6b3b fa1d d23c 5ef4 1c3d b4b9 cb3b
000000b0: cb88 aa3c b36c 9ebc 9765 4fbd 358c 3f3c
000000c0: 8f18 fabc 5c22 f13c 7719 403b 2acb cc3b
000000d0: f6a2 973b faed e03c 930a 49bd 350b 2c3c
000000e0: f408 13bc 659f 543d c431 f03c c9e0 98bc
000000f0: 9e5a 20bd 04f9 82bc 7761 57bd e1ce 1f3d
00000100: 9004 07bd 3a4b e7bc e7ee 5f3c e75c 6dbd
00000110: 0510 25bd 96a9 43bc ec09 4cbc 1ee3 943b
00000120: 4565 af3c fcb2 e3bc 4039 22bd 45e1 5b3d
00000130: aae5 b73c daac 853b 5e18 bbbc bbd7 60bd
00000140: dabc 76bc 083b 28bb 4080 dbbc 2c93 403d
00000150: b420 4b3c dbd3 9a3d 9011 f4bc 29a2 c93c
00000160: 73dd 4cbc f83e 6fbd 5f85 02bd cffb 7ebd
00000170: a3d8 85bd 8a79 04bd 620f 563c b178 95bc
00000180: 14e4 cf3c 57c6 cb3c d168 d13c 7f66 103b
00000190: 78ce 2fbd 18d4 17bd 1c7a 033d ddb4 263c
000001a0: 8a0f a73c 0153 f2bc 1858 3c3c c10a 903c
000001b0: ea59 cb3b 6abb d13c 0a70 34bd e9c7 a8bb
000001c0: 647f a9bb 35b2 ae3c a72f 8b3d 33be de3c
000001d0: bd40 25bd 0f5f 82bc 1239 853c 33d4 ff3c
000001e0: f51f 47bd 5173 51bd 2b71 42bd e2c7 00bd
000001f0: 300f 413d 7e1b c9bc 41a8 52bd 6969 013c
00000200: b5b9 dfbc 5765 a23b 48f2 61bd 7513 63bd
00000210: 52fe 0fbd fd6b 4bbc dcd7 87bd f1a3 b3bc
00000220: 958e 033d 36b0 113d e78a 21bd e3f6 293d
00000230: eb1a b23c f235 8b3c f714 143d 70cb ecbc
00000240: aecf 2fbd 948f f5bc 8f62 e33c e98f bdbb
00000250: fa03 263d ada7 613d b8af 4a3d fdb9 87b9
00000260: 7152 843c 2657 01bd 9268 15bc ddd0 d0bb
00000270: e486 27bd 69e4 dfbc 7809 9e3c 3a10 603d
00000280: 8024 85bd 1230 23bd d8d4 9fbc fa90 a83a
00000290: 3b19 1abd b5cf 90bc d74c 853d 4296 863b
000002a0: ae97 42bc 87e2 17bc 6bfa 2439 afb3 95bc
000002b0: 90cd ccbb 5f5d 023d 5a91 67bc ae29 fe3b
000002c0: c48b e33c d7df 44bc f602 5c3d 5899 ee3c
000002d0: a6a8 603c 2b39 a0bc 4e13 fcbc 31e1 13bd
000002e0: c2ea 65bd 0c19 ef3b 4b85 423d 33ee 42b9
000002f0: 6f37 1fbc e078 46bb e439 3f3d 0346 39bd
00000300: 0ca2 823d 193e 0e3d c397 6dbc fee9 8c3c
00000310: 47ed 6d3d 5fc7 c4bc f4be 813c 3624 03bd
00000320: b5ef 82bd 2dd7 1fbc 8a75 9c3c 474c adbc
00000330: 3132 c9bb 176a 3b3d 04dd 363d 2de3 80bc
00000340: b319 c53c 5529 38bd 1369 86bc 2cce e8bc
00000350: b7a8 1a3d 68be 0f3d ed78 62bd 192e a33b
00000360: f342 36bc 3359 473c 9980 b43c e90d 53bd
00000370: 540d aebc 4bc4 06bb 1189 35bd ca33 833d
00000380: ae56 41bd 84ab bf3c 9ac8 383d 1162 1a3d
00000390: e8f5 ba3b cf81 323d ab1f 393d e279 09bd
000003a0: 9afe 7fbc 6702 c4bc 45c2 cd3c 2603 5ebb
000003b0: b7f8 a8bc 1ca8 53bd a828 49bd dd03 283b
000003c0: dfa9 8a3c 3f04 453d d970 2bbd 743b 3fbd
000003d0: 8c9d c53c 04e4 9b3c fe4c 5ebc a0b2 60bc
000003e0: 2119 05bd ad52 50bd 3deb bc3c 47cc 1b3d
000003f0: bb02 783d b879 a93b bbae 3bbd 8559 a03b

bias f4 [200]
-0.046662282 0.022823408 0.007588219 0.047941055 -0.026367879 0.039434973 -0.032573443 0.004893636
-0.048107937 0.038049135 -0.019562041 0.031265967 0.026923107 -0.0038733885 -0.057977166 -0.002489017
0.053188384 -0.02127207 0.006247083 0.014967966 -0.06474095 -0.022152638 -0.03539421 0.054133777
0.013747297 -0.028750898 0.022590447 0.004668361 -0.039115015 0.038187284 -0.020254003 0.04439689
0.003912606 0.028968977 -0.021663941 0.043011747 0.009205491 0.049567208 -0.0069228564 -0.038520366
0.011216277 -0.0020837446 0.019737327 0.030902606 -0.018454231 0.046441164 -0.049488008 0.016860086
-0.04229193 -0.06154747 -0.026843883 -0.050562803 0.05242776 -0.031955026 -0.05780909 -0.01812536
-0.008160578 0.0165976 0.041197974 -0.0022306337 -0.0011663304 -0.050272714 0.05495649 -0.060938008
-0.011108348 -0.03991305 -0.048626028 0.030288445 -0.044899758 0.0035998581 0.0574171 0.0125647085
-0.02513961 0.035393145 -0.034671165 -0.019242898 0.01728225 0.008057922 0.011568483 -0.045739155
-0.0029865806 0.042246923 -0.001276763 0.0069190147 0.0089501 0.008119431 -0.011658765 0.060330488
0.031640425 0.022743778 -0.04627531 0.0034896224 0.011489207 0.002239875 -0.023297947 0.016505249
-0.05450764 0.044654146 0.0040265904 0.026794354 -0.034397997 -0.025876649 -0.0292819 -0.06379265
-0.03988985 -0.008288541 -0.05398281 -0.05850052 -0.023625484 -0.03311478 0.0005832861 -0.05707281
-0.049125284 0.02920071 0.06254674 -0.010529978 0.005446712 0.0032740515 0.00348783 0.013759513
-0.04029297 0.016687647 0.018843403 -0.0056688483 -0.026464356 0.032984003 0.03972738 -0.01754346
-0.036047988 0.021118179 0.036538202 0.020778561 -0.0228713 -0.015825333 0.043524913 0.023298787
0.0073293853 -0.03252299 0.0019397087 0.02204975 -0.013322184 0.04378024 -0.00599481 -0.028314475
0.0060774605 -0.00039093345 0.01475727 -0.05031055 -0.0115366215 0.032365635 -0.05680101 0.027622415
0.034681633 -0.06365397 0.05366611 -0.040977333 0.047955986 0.041440677 0.04995848 -0.002014166
-0.034154214 0.028804636 0.016157605 -0.0006421379 -0.026148813 -0.04351211 0.014811097 -0.0609657
0.0029526693 -0.014037234 -0.038651392 -0.0055088336 0.047134098 0.025447357 -0.0411373 0.038819406
-0.02735892 -0.016840419 -0.034563154 -0.05137579 0.0250333 0.017683024 0.021429047 -0.0220914
-0.049885996 0.006120375 -0.04418782 0.02828893 -0.0065910704 -0.04345635 -0.029942675 -0.050099716
0.024359073 -0.033037283 -0.024748832 -0.03432834 0.010818626 0.019753616 0.029022846 -0.035082925
00000000: f320 3fbd 28f8 ba3c 98a6 f83b d75d 443d
00000010: 7301 d8bc 9186 213d bb6b 05bd cb5a a03b
00000020: d40c 45bd 69d9 1b3d 9340 a0bc be10 003d
00000030: d98d dc3c add8 7dbb 7779 6dbd c71e 23bb
00000040: 10dc 593d c442 aebc 55b4 cc3b 333c 753c
00000050: e796 84bd 7379 b5bc 85f9 10bd 61bb 5d3d
00000060: 583c 613c 0187 ebbc 9a0f b93c 0df9 983b
00000070: 1137 20bd 456a 1c3d b9eb a5bc 83d9 353d
00000080: 5135 803b 5950 ed3c 9478 b1bc 162d 303d
00000090: a1d2 163c fc06 4b3d 21d9 e2bb 88c7 1dbd
000000a0: 7ac4 373c 6f8f 08bb 2db0 a13c 7627 fd3c
000000b0: 542d 97bc 1739 3e3d f0b3 4abd 2a1e 8a3c
000000c0: 4e3a 2dbd 3319 7cbd b4e7 dbbc f11a 4fbd
000000d0: 7ebe 563d 46e3 02bd 39c9 6cbd a37b 94bc
000000e0: f2b3 05bc b1f7 873c 35bf 283d d32f 12bb
000000f0: 8edf 98ba c3ea 4dbd 0e1a 613d 229a 79bd
00000100: caff 35bc de7b 23bd 162c 47bd 791f f83c
00000110: cfe8 37bd 99eb 6b3b 312e 6b3d 35dc 4d3c
00000120: 95f1 cdbc 67f8 103d 5a03 0ebd 48a3 9dbc
00000130: 8193 8d3c 6005 043c bc89 3d3c fb58 3bbd
00000140: 82ba 43bb 1c0b 2d3d 0f59 a7ba e7b8 e23b
00000150: 71a3 123c 5d07 053c 6804 3fbc 1a1d 773d
00000160: 6499 013d 2951 ba3c 2e8b 3dbd 26b2 643b
00000170: 3a3d 3c3c deca 123b 56db bebc 0436 873c
00000180: 6743 5fbd 44e7 363d 7df1 833b d57f db3c
00000190: eae4 0cbd 44fb d3bc 98e0 efbc b9a5 82bd
000001a0: 8a63 23bd a9cc 07bc 141d 5dbd 3e9e 6fbd
000001b0: 3b8a c1bc 5da3 07bd abe7 183a 2ec5 69bd
000001c0: 9837 49bd 5436 ef3c 8118 803d ee85 2cbc
000001d0: 557a b23b 7891 563b 1494 643b 956f 613c
000001e0: 3e0a 25bd 88b4 883c 7b5d 9a3c bfc1 b9bb
000001f0: c7cb d8bc 3c1a 073d 2db9 223d 4db7 8fbc
00000200: 0ea7 13bd 0800 ad3c 15a9 153d cd37 aa3c
00000210: 985c bbbc 21a4 81bc 2e47 323d 19dd be3c
00000220: 572b f03b d436 05bd d33d fe3a ada1 b43c
00000230: 4a45 5abc e952 333d 1c70 c4bb c2f3 e7bc
00000240: 6f25 c73b 33f6 ccb9 7ac8 713c 6f12 4ebd
00000250: 1904 3dbc d491 043d 2da8 68bd 6748 e23c
00000260: 540e 0e3d 035d 82bd ffd0 5b3d d9d7 27bd
00000270: 7f6d 443d b3bd 293d 43a1 4c3d 1900 04bb
00000280: 4ae5 0bbd b3f7 eb3c f45c 843c 2555 28ba
00000290: 0936 d6bc c139 32bd 3eaa 723c 2bb7 79bd
000002a0: 9281 413b 6dfc 65bc ec50 1ebd 7283 b4bb
000002b0: af0f 413d fa76 d03c 967f 28bd 1901 1f3d
000002c0: d01f e0bc ebf4 89bc 1892 0dbd 6c6f 52bd
000002d0: a312 cd3c fddb 903c f88b af3c 06f9 b4bc
000002e0: 4255 4cbd 6d8d c83b 4afe 34bd 30be e73c
000002f0: e8f9 d7bb 49ff 31bd 574a f5bc 5c35 4dbd
00000300: ae8c c73c 1a52 07bd 10be cabc e09b 0cbd
00000310: 9b40 313c 56d2 a13c 52c1 ed3c 1db3 0fbd

weight f4 [4, 300]
0.07917927 -0.08868861 -0.040957198 -0.031864703 0.089449085 0.027954927 -0.00563321 0.07783335
0.044633165 0.027254468 0.024804354 -0.05781274 0.0055873333 0.00035246232 0.04005703 -0.029629426
-0.003382194 -0.07065344 0.028404232 0.02070809 0.06761235 -0.019056212 -0.0154824145 0.060181726
-0.042254522 0.015146341 0.03740018 -0.055374812 -0.06756344 -0.039676603 0.060111385 0.16502424
2.2095865e-05 -0.032745887 -0.025135875 -0.15793417 0.086748764 -0.019958979 -0.00418995 0.0864142
0.023760092 0.031992782 0.032103077 0.0038269896 0.014043412 -0.06740815 -0.13472447 -0.024252664
0.026107842 0.0046726284 0.10216158 -0.058578495 -0.03591628 0.03171987 -0.012065633 0.03997637
0.01921237 0.06472254 -0.030354504 0.004726653 -0.0501875 -0.007194045 -0.052763186 -0.026454082
-0.06059566 -0.04735191 -0.04325287 -0.022282986 0.026124217 -0.030537082 0.027802786 0.0045836074
0.0074214255 -0.034400277 -0.01097503 -0.052419804 -0.06333047 0.03757242 -0.011390432 0.054088872
0.024082365 -0.05594012 0.14924161 0.076139905 -0.010594114 -0.06494856 -0.016868744 0.038305547
-0.12471981 -0.027143402 -0.048861783 0.07691761 0.032673635 -0.04006181 -0.050369337 0.025818191
-0.005200932 -0.028250666 0.039885644 0.08157782 -0.032066762 -0.0105556445 0.04763664 0.023248874
0.037145205 0.038519185 -0.03038113 0.008012005 -0.009900296 0.0436298 -0.015640832 -0.035995092
-0.066128604 0.025670255 -0.0073216264 -0.012973945 0.03722687 -0.03078161 -0.018989336 -0.015223341
-0.022404207 0.0120187765 -0.05068488 0.015036729 -0.0201522 0.008379307 0.0051963897 -0.01961607
-0.029854799 0.01384605 -0.03772128 0.03322057 0.0365032 -0.00451175 -0.004077629 0.044263788
-0.020243844 0.05152519 0.006404751 -0.016166138 0.045438956 -0.04846775 -0.047956925 -0.0206872
-0.046578888 0.0025997614 -0.022396388 -0.024198333 0.022556556 0.05968977 -0.024360543 -0.0016990879
0.035976466 -0.018832004 -0.04848861 0.0154836895 -0.020457603 -0.027432987 0.030965399 0.024547284
-0.023775306 -0.022224365 -0.037834264 -0.03501111 0.03735665 0.015217023 0.035947613 -0.011494292
0.035485677 0.001870776 0.045276787 -0.03166238 -0.01554706 -0.029293695 0.011418125 0.010177413
-0.028152779 -0.003766499 0.0020853588 -0.023183765 0.008604443 -0.022479702 0.03002066 0.010919107
0.040912926 -0.023950825 0.03238641 -0.04723473 -0.017479323 0.03784614 -0.050098825 0.01882471
-0.05393414 -0.015764756 -0.03838963 0.0051333336 0.032969195 0.00359953 0.016636398 -0.04450171
-0.016851394 0.023792688 -0.01912966 -0.018682558 0.017705798 0.019406013 -0.05593785 0.02658837
0.046005465 -0.0051036663 0.011957573 -0.030819494 0.013131727 -0.008442829 0.009728458 -0.039496902
0.010462807 0.029725023 -0.0025412054 0.019079508 -0.009435153 -0.021016302 -0.013830841 0.030895205
0.019929597 0.004175922 0.0080643995 0.007178442 0.038004287 0.006359752 -0.03541325 -0.016661106
-0.01561072 -0.01648577 0.03889563 0.011444521 -0.031082548 0.011074554 0.03960914 0.029704979
-0.016227793 -0.0043210234 -0.02415887 0.015858388 -0.016790897 -0.03755109 -0.01116625 0.033968568
-0.016982557 0.016659226 0.010210211 -0.033450026 0.033684194 0.020895353 0.04883338 -0.00436152
00000000: be28 a23d 60a2 b5bd bcc2 27bd 9084 02bd
00000010: 1531 b73d bb01 e53c ca96 b8bb 1767 9f3d
00000020: 44d1 363d c344 df3c 8032 cb3c 0dcd 6cbd
00000030: f315 b73b b1ca b839 d712 243d 69b9 f2bc
00000040: cda7 5dbb c0b2 90bd feaf e83c 03a4 a93c
00000050: 5878 8a3d c61b 9cbc f4a9 7dbc 1d81 763d
00000060: 1413 2dbd 5c28 783c ee30 193d b3d0 62bd
00000070: b35e 8abd ef83 22bd 5b37 763d 1dfc 283e
00000080: 825a b937 8d20 06bd c0e9 cdbc 7fb9 21be
00000090: 56a9 b13d 0381 a3bc d94b 89bb eef9 b03d
000000a0: 86a4 c23c dd0a 033d 847e 033d 3bce 7a3b
000000b0: 5716 663c 490d 8abd 36f5 09be 86ad c6bc
000000c0: 1de0 d53c d91c 993b 173a d13d 01f0 6fbd
000000d0: f31c 13bd b2ec 013d efae 45bc 43be 233d
000000e0: 4363 9d3c 408d 843d 02aa f8bc 0ae2 9a3b
000000f0: 6891 4dbd 06bc ebbb 361e 58bd 3bb6 d8bc
00000100: 2833 78bd 14f4 41bd ec29 31bd cf8a b6bc
00000110: 7402 d63c e728 fabc abc2 e33c 1632 963b
00000120: 6e2f f33b 4ee7 0cbd 9dd0 33bc 26b6 56bd
00000130: 68b3 81bd 8ae5 193d ef9e 3abc 4b8c 5d3d
00000140: 6148 c53c 7821 65bd cbd2 183e 3def 9b3d
00000150: ef92 2dbc c003 85bd 5230 8abc 47e6 1c3d
00000160: 1a6d ffbd d75b debc 4b23 48bd fb86 9d3d
00000170: cad4 053d da17 24bd 1450 4ebd ac80 d33c
00000180: 946c aabb f16d e7bc 215f 233d 4612 a73d
00000190: 7058 03bd 95f1 2cbc a31e 433d 6c74 be3c
000001a0: 9225 183d 4bc6 1d3d d9e1 f8bc c944 033c
000001b0: da34 22bc 29b5 323d 3421 80bc 976f 13bd
000001c0: 6f6e 87bd 6d4a d23c 41ea efbb ab90 54bc
000001d0: 347b 183d b729 fcbc 868f 9bbc 526b 79bc
000001e0: 0789 b7bc 67ea 443c f39a 4fbd 9d5c 763c
000001f0: 3a16 a5bc 5c49 093c 7a46 aa3b e1b1 a0bc
00000200: 0d92 f4bc 8bda 623c a181 1abd 4b12 083d
00000210: 6184 153d 4dd7 93bb a29d 85bb f24d 353d
00000220: 6bd6 a5bc 140c 533d f2de d13b d96e 84bc
00000230: 331e 3a3d 1f86 46bd 7b6e 44bd 3478 a9bc
00000240: 81c9 3ebd c260 2a3b a178 b7bc 953b c6bc
00000250: 87c8 b83c 437d 743d c38f c7bc eeb3 deba
00000260: 0f5c 133d 9345 9abc fe9b 46bd 4daf 7d3c
00000270: b496 a7bc 25bb e0bc 26ab fd3c 6317 c93c
00000280: 6ec4 c2bc df0f b6bc 1af8 1abd cf67 0fbd
00000290: 4903 193d d250 793c ce3d 133d 8e52 3cbc
000002a0: 6e59 113d d334 f53a 2774 393d 69b0 01bd
000002b0: 19b9 7ebc 55f9 efbc 1613 3b3c 2abf 263c
000002c0: a8a0 e6bc 5ed7 76bb 84aa 083b e1eb bdbc
000002d0: a6f9 0c3c 5a27 b8bc e3ed f53c 0ee6 323c
000002e0: 5094 273d 8534 c4bc 9da7 043d 3479 41bd
000002f0: cc30 8fbc 8e04 1b3d 6d34 4dbd 4736 9a3c
00000300: 0bea 5cbd 1725 81bc 723e 1dbd 8635 a83b
00000310: b50a 073d 18e6 6b3b 0e49 883c 6d47 36bd
00000320: ef0b 8abc e2e8 c23c ceb5 9cbc 2a0c 99bc
00000330: c00b 913c 5cf9 9e3c 161f 65bd dacf d93c
00000340: 3a70 3c3d a83c a7bb b2e9 433c 2a79 fcbc
00000350: 7526 573c cb53 0abc 1c64 1f3c 81c7 21bd
00000360: 316c 2b3c e481 f33c 5a8a 26bb a14c 9c3c
00000370: e695 1abc 612a acbc c09a 62bc f117 fd3c
00000380: 6543 a33c 2cd6 883b 8b20 043c 2339 eb3b
00000390: 62aa 1b3d 7765 d03b 7c0d 11bd df7c 88bc
000003a0: 1bc4 7fbc 2a0d 87bc 0651 1f3d cd81 3b3c
000003b0: d4a0 febc 0c72 353c 323d 223d db57 f33c
000003c0: 26f0 84bc 5f97 8dbb d3e8 c5bc 73e9 813c
000003d0: 108d 89bc 2ccf 19bd a6f2 36bc a022 0b3d
000003e0: 011f 8bbc ee78 883c bb48 273c e502 09bd
000003f0: 70f8 093d bb2c ab3c 8305 483d 15eb 8ebb

bias f4 [4]
-0.0068616285 0.04170054 -0.016126705 -0.0034605358
00000000: 83d7 e0bb 2fce 2a3d 271c 84bc 28ca 62bb
