results/rnn_tc/rnn_tc_50d.11150316.pt (torch_old, 212943 bytes, 6 tensors)

weight_ih f4 [200, 50]
00000000: 4bd6 e1bc 6c36 20bd 941e 2bbd 3572 353d
00000010: f75f 7abd f61c 4abd 5beb 3bbd 2daf b33d
00000020: f21f 68bc 8b99 80bd 79bf cabc 800e a9bd
00000030: 260d 6dbc 9549 8dbd 0fd0 4ebc ef54 3d3d
00000040: 936c f43c 3f4f 3f3d 9903 1b3d 035c 363d
00000050: 49f4 0dbd 35ef 41bc fee6 57bc 1eb6 eabc
00000060: 06dd 043d cbea eabc 3271 da3b 4910 01bc
00000070: 0a7a c6bc f7d1 2c3b 9763 b23b 96cd e0bc
00000080: 214e 8c3b ed52 ab3c 9fb9 df3b 7d18 2bbd
00000090: 4e5d 533d 8811 6f3d d688 98bd 5b95 643c
000000a0: 119e 843d e3eb 173d 114c 9d3d 209a 80bc
000000b0: b073 a43d 7f2f 24bd c0fc 203d fb31 6fbc
000000c0: 08fc 6bbc 7b38 8fbc 3529 833c f973 523c
000000d0: c7f6 fcbc 9d6d 89bb 2695 903b c85d da3c
000000e0: 0929 5d3c f031 58bb 4252 aabb 0b78 87bb
000000f0: 91a8 a5bc 2bbb 013d 4056 fabc 6afa 94bc
00000100: e75b 3a3d 7c7a 433d 76b1 0abc 627a 833d
00000110: ba53 773d 3c5a 92bc 78e2 33bd b921 923c
00000120: 2979 313c 90fc 7bbc 92e3 993a c9dc 283c
00000130: fc6a 5a3d 3c4b 95bb e82b 80bc c2b4 3d3b
00000140: 1794 adbc 1e31 3cbd 99cb 7fbc a373 083d
00000150: 2020 38bc 28f2 1b3b 2001 273c 8173 603d
00000160: 7ede f13c f1b9 abbd 223c 433d 8562 6cbd
00000170: 52c7 91bd 15be 91bd f104 8ebd 44d2 0c3d
00000180: f31b 01bc 9532 913d 2b84 b7bb 8124 71b9
00000190: 17ef 983c 5d9a 843d 3571 053d ef34 553c
000001a0: c6b3 debb 5279 f63c 4ec9 643d a271 b0bc
000001b0: 4687 653c ac1e 033d 1e56 12bd d4c5 223d
000001c0: 8d0e 96bd a001 923c 770d 17bd c20b 603d
000001d0: d21d 97bd 3c2f 6c3d 1515 a53c 10a6 b9b7
000001e0: 19ac 24bd acad 173c 38dd 3fbb 8334 503d
000001f0: a7e2 6a3c bc73 bdbc e727 0cbd 792f 033d
00000200: 6c38 8f3d 5368 943d 98ad d1bc 95e7 e7bc
00000210: ee4c 0f3d 61a4 5f3d d9e1 1b3b c520 37bd
00000220: 6e88 6bbc 6aee 793d 5bec bbbb 4b9c 64bd
00000230: 86ef 603d 588e 803d f437 8d3b 584e c23b
00000240: 0d1c 873c ed63 8abd c51a 3dbd 5b44 a9bc
00000250: e86a 1dbc a040 2bbc f88d 3f3c 4b84 8e3d
00000260: 78c7 293d 77c6 81ba 80ca d23c 4063 08bd
00000270: e127 f13c f7db 153c 0032 28bd 25e2 993c
00000280: 577c f73c 0b91 793c 48a0 65bd 5a1b 723d
00000290: 3da9 633d 4b23 0abd 7da0 37bd 2ac1 16bd
000002a0: a059 173c 496f 223d c008 99bc 5e75 69bd
000002b0: fd7e d9bc 4818 20bd 6e28 d33c fead 853d
000002c0: 3864 99bb 205b 8c3b 8369 863d 4d91 443d
000002d0: 5de4 313d fe15 8abd 0a05 66bd 968f 083d
000002e0: 0f84 9f3c fbdf 88bd bc34 4f3d c715 af3d
000002f0: e157 5a3d ee6e c9bc 8ad7 703b 9af2 143d
00000300: fdfc 9ebd f3bd 453c c51a f5bb b2d5 6dbc
00000310: da31 5c3b 2b4f 923d eefb 98bc 3e95 9cbc
00000320: 3834 23bd 9921 2dbd 12b3 eb3c fda1 323d
00000330: 98e5 6abd 98b0 133d 0736 90bd 69a4 51bd
00000340: 983d 8bbd 46a8 353c 50a0 e1bc 4ade ecbc
00000350: c674 3a3d 39ef e23c f1f0 7c3d 8434 593d
00000360: 72cd 2abc 93a6 c5ba afb4 91ba 2113 88bd
00000370: 609e 3f3c 552d cfbb 3c46 34bd 0ec0 44bd
00000380: 8efe cbbb 8206 2e3d 8383 91bd dcfb 673c
00000390: af26 273c 1eee 9d3d fc03 0c3d e997 8eba
000003a0: c14f 3ebd a1f5 d33c 65b6 a5bb f25a 633d
000003b0: 8e2d 0e3d fe7b 9abc fb3c 65bd b3bb e3bc
000003c0: 2943 f5bc 49f2 c0bb 3444 4c3d f24d 81bc
000003d0: 7192 b13c 9c4a c93c fdbe 883c 33e9 67bd
000003e0: 470f cebc f5cd 923c dc03 70bd beaf cabc
000003f0: 7f7f 61bd 077c 933d 8e03 803d 6d7f 6e3c
-0.027568003 -0.0391144 -0.04177721 0.04429837 -0.061126675 -0.049344026 -0.04587875 0.087736465
-0.014167773 -0.06279286 -0.024749504 -0.08254719 -0.014468467 -0.068988 -0.012622847 0.046223577
0.029836928 0.046706434 0.037845228 0.044521343 -0.034656797 -0.011836817 -0.013177631 -0.028651293
0.032437347 -0.028676411 0.006666326 -0.007877418 -0.024228115 0.0026370266 0.005444001 -0.027441781
0.0042817746 0.020913566 0.0068275477 -0.0417714 0.051602654 0.05836633 -0.074479744 0.013951625
0.06475461 0.037090193 0.07680524 -0.015698493 0.08029878 -0.04008436 0.03930354 -0.014599319
-0.014403351 -0.017482987 0.01601086 0.012845033 -0.030879391 -0.004193975 0.004412311 0.026656047
0.013498553 -0.003298875 -0.005197794 -0.0041341833 -0.02022198 0.031672638 -0.030558705 -0.018185813
0.0454978 0.047724232 -0.008465162 0.06419827 0.060382582 -0.017865293 -0.04391715 0.017838346
0.0108321095 -0.01538004 0.0011740795 0.0103065455 0.053324685 -0.004556088 -0.015645936 0.0028946851
-0.021188779 -0.04594528 -0.015612506 0.033313405 -0.011238128 0.002379546 0.010193139 0.054797653
0.029525038 -0.08385075 0.04766477 -0.057711143 -0.071180955 -0.071163334 -0.06934536 0.034380212
-0.007880199 0.07089726 -0.0056004724 -0.0002299715 0.018668694 0.06474755 0.032578666 0.013013109
-0.006796333 0.030087147 0.05585604 -0.02153856 0.0140093025 0.032011673 -0.03572666 0.039739445
-0.07326994 0.01782304 -0.036878075 0.054698713 -0.07378735 0.057662234 0.020151654 -2.2131047e-05
-0.040203188 0.009257715 -0.0029276144 0.05083133 0.014336265 -0.023126476 -0.03421774 0.032027695
0.069931835 0.07246461 -0.025595471 -0.02830867 0.034985475 0.054600123 0.0023785739 -0.044708986
-0.014375789 0.061018385 -0.005734963 -0.055813115 0.054915927 0.0627715 0.0043096486 0.0059297495
0.016492868 -0.067573406 -0.046168108 -0.020662477 -0.009608008 -0.0104524195 0.011691563 0.06958827
0.041449994 -0.0009901066 0.025731325 -0.033297777 0.029437961 0.009146682 -0.04106331 0.018784592
0.030210657 0.015232335 -0.05606106 0.059108116 0.05558132 -0.033725064 -0.044830788 -0.03680531
0.009237677 0.03965691 -0.01868093 -0.056996696 -0.02654981 -0.039085656 0.025776114 0.06527327
-0.0046811365 0.004283324 0.065630935 0.047990132 0.043430675 -0.06742476 -0.05615715 0.03334006
0.01947215 -0.06683346 0.0505874 0.085490756 0.053306464 -0.024589028 0.0036749565 0.036364175
-0.077630974 0.012069213 -0.007479998 -0.014516281 0.003359905 0.07144006 -0.018674817 -0.019114133
-0.03984472 -0.04226837 0.02877191 0.043611515 -0.057347864 0.036057085 -0.07041555 -0.051182184
-0.067988575 0.011087483 -0.027542263 -0.02891459 0.04552152 0.02770196 0.061753217 0.0530286
-0.010424959 -0.001507955 -0.001111647 -0.066442735 0.011695474 -0.0063225427 -0.044012293 -0.04803472
-0.0062254136 0.042486675 -0.07105162 0.014159169 0.010202094 0.07711433 0.034183487 -0.0010879013
-0.046462778 0.02587396 -0.0050571435 0.055506654 0.034711413 -0.018857952 -0.05596636 -0.027799463
-0.029939251 -0.0058882576 0.04986973 -0.015784238 0.021676274 0.02457171 0.016692633 -0.05661888
-0.02515377 0.017920474 -0.05859743 -0.024742004 -0.05505323 0.07201391 0.06250678 0.014556748

weight_hh f4 [200, 200]
00000000: c4bb 563d ca4b 3bbd 6abb 6b3b 1b5e 1739
00000010: 4ae3 f93c 9ea7 713d 3a9a 813d 4fe7 4e3c
00000020: a150 38bd 8680 533d 6104 a6bc b0f7 323d
00000030: 9d3a b13c e128 efbc f696 1fbd e7c4 8abd
00000040: c6ce 583c 2038 73bd 461c b8bc d0bc 863d
00000050: 2f29 993b af6b d1bc 9cc1 903d a2a5 053c
00000060: 39b8 523c 3491 523d 14e5 823d daca 65bd
00000070: c247 7ebc c81d 5cbd 8e9f c2bc db1f 24bd
00000080: 40ab 0f3d 04e7 4cbd 8c05 1fbd 6c3f 42bd
00000090: a231 663c 648c 483c 4749 033d 5c39 5b3d
000000a0: cf1c 763b 0ce6 b23b cc43 913d fd4e a73c
000000b0: ef0d 583d f69c 8a3d b22d 2d38 cfdf b93b
000000c0: 09ef 9a3b c2d9 a03c f832 a33d 5247 2bbc
000000d0: c12d eebc 519a 873d 7594 55bd c0d5 52bd
000000e0: 687a 603c 6586 873d ce90 7d3d 5412 743c
000000f0: 6bf5 7ebc 66bb 363d 6c61 84bc 721d b53c
00000100: b78d 64bd 882a 92bb 84b4 33bd 1266 5b3d
00000110: 59e9 763b 5653 efbb 9eb8 803d 8fe0 17bd
00000120: 709d 3b3c cab2 a63c 2618 05bd 0967 68bd
00000130: 3c89 6a3b ea83 153d 36b0 683d 6e90 9f3d
00000140: 0d1b 2a3c b992 133d 09dd 8f3d e053 963d
00000150: 0bdb d93c d386 cdbc 228c 83bd a7f6 4c3d
00000160: 0bee 00bd c43a 73bd 3268 553d be27 8b3d
00000170: 000e 8abb cb07 e0bc 1850 7ebd 41f9 d6bc
00000180: 194e 15bd 9fdc 45bd a799 b9bc b252 09bd
00000190: 1448 c5bb b5b7 07bd a47a 9c3a 13f7 79bd
000001a0: 5f98 8b3d 09ad 6b3d 7368 d6bc 9029 1cbd
000001b0: bc23 90bd eb32 c63c a214 703d 98bf 183d
000001c0: 1e8e 37bd 0844 963c 9a73 233d 4c30 2a3d
000001d0: 427f f9bc 8645 91bc de94 993b 4df0 8b3c
000001e0: 6c13 033d a57e 9f3d 2492 e1bc b16d 3c3d
000001f0: 7e01 37bd 7d82 263c 6c8f 43bc d415 b23c
00000200: 8b9f 5e3c 9970 26bd 9621 613c 4572 5a3c
00000210: c569 84bd 1c58 40bc 61d7 863d e77a 4abd
00000220: 216f 983c 5d9c 943c 7eea 113c c4d6 88bc
00000230: 5faf f73c 64f5 94bd 64aa 68bd 3ffb b63c
00000240: 5086 20bd 38f1 c43b cc79 60bd 086d 5f3d
00000250: 4017 60bc 1d39 83bc 2071 873d 54ba 32bd
00000260: d2cc 363d 51ae 3abc 4dcd f5bc d621 ab3d
00000270: fcf0 2abd 56b5 703d 2202 01bd 0362 063b
00000280: 1b01 59bd 89b9 47bd 0ee1 44bd 0de3 4b3d
00000290: a197 34bd ac8c da3c 0c03 4cbd a6ba 0ebc
000002a0: 0fc4 f43c b017 803d f36b 233c 4af8 dd3c
000002b0: 9102 8dbb f2ba 833d 699f 79bd e175 9fbd
000002c0: 4039 79bc f9de 82bd 5cbd f13c 10a8 453d
000002d0: 9919 06bb bd87 1bbd 7bf7 3e3d 0821 71bd
000002e0: 9561 c0bc 7dc2 83bc e68d 6bbc 9ca1 86bd
000002f0: 811b 143d 872c 323c e4bf 3cbd d2db 283c
00000300: 57f8 a73c 0bce 3e3b 8899 c03c e6d6 45bd
00000310: 3383 e93c 3d69 383c 35ee 543d d79b 2c3d
00000320: 2989 59bd 2aea e83c 49e6 c7bc 9e4b 323b
00000330: 38d3 073d 246c af3d 3807 913c 3d39 49bc
00000340: 48c9 39bd de8e cabb 7045 5cbc 2cd7 003c
00000350: 1ba7 2fbd 1239 1dbd 6c96 14bc 47f4 47bd
00000360: f249 9d3d 5399 57bd 913e e0bc e2f1 3cbd
00000370: f82c 72bd 9c01 0c3d 0542 e0bc 9b0c 89bd
00000380: 1592 23bd 2fed 533d 9730 ab3c d0f8 20bd
00000390: d7b9 acbd d4a1 30bb 5bdd 993d 6088 f23c
000003a0: fa94 613d b32f efbc 8429 893d 6b87 23bd
000003b0: 8dec 3b3d dff8 f73c b7bd 933d ef4d 25bd
000003c0: 79e0 4c3d e4c8 df3b 82a7 4c3c 85fe c9bc
000003d0: 3c35 243d 01cc 04bd bd30 aa3b 5113 25bd
000003e0: a404 4c3d cd96 fc3b d004 46bd 3ce1 ff3c
000003f0: a71e 92bb 2b5a 42bd 52a7 4b3d a8fa 583d
0.05242516 -0.045726575 0.0035969862 0.00014435539 0.030503888 0.058997743 0.063282445 0.01262839
-0.04499877 0.05163624 -0.02026576 0.043693244 0.021634394 -0.029194297 -0.038962327 -0.067758374
0.013232892 -0.059379697 -0.02247442 0.06578982 0.004674099 -0.025564043 0.07068178 0.008157166
0.012861305 0.051408008 0.063913494 -0.056101657 -0.015520038 -0.05373934 -0.023757722 -0.040069442
0.035075426 -0.050025 -0.03882365 -0.047423765 0.014049919 0.012240503 0.032052305 0.0535215
0.0037553792 0.0054595526 0.07093009 0.020423407 0.052747663 0.06768219 4.128897e-05 0.005672432
0.0047282022 0.019635085 0.07968706 -0.010454016 -0.029074552 0.066212304 -0.052143533 -0.05147338
0.013701059 0.066174306 0.061905675 0.014896948 -0.015561442 0.04461231 -0.016159736 0.022108767
-0.055799212 -0.0044606365 -0.043873325 0.05356414 0.0037675707 -0.0073036356 0.06285213 -0.03707939
0.01145111 0.020348925 -0.032493733 -0.056738887 0.0035787364 0.036502756 0.056808673 0.0779122
0.010382426 0.036028598 0.07024581 0.07340217 0.026593706 -0.025088703 -0.064232126 0.050039914
-0.031477015 -0.059382215 0.05210132 0.067946896 -0.0042130947 -0.027347466 -0.062088102 -0.0262419
-0.036451433 -0.048306104 -0.022656275 -0.03352613 -0.0060205553 -0.03313418 0.0011938405 -0.061026644
0.06816172 0.057538066 -0.026172852 -0.038125575 -0.07038066 0.024194201 0.058613427 0.037292093
-0.044813268 0.018342987 0.039905168 0.041549966 -0.030456189 -0.017733347 0.004686936 0.017082358
0.032000944 0.077878274 -0.027535506 0.046003047 -0.044679157 0.010162947 -0.01193605 0.021738924
0.013587843 -0.040634725 0.013740918 0.013332908 -0.064654864 -0.011739757 0.06584049 -0.049433615
0.018607678 0.018140966 0.008906005 -0.01670397 0.03023499 -0.07273367 -0.056803122 0.0223366
-0.03919059 0.006010201 -0.054803655 0.05454734 -0.013677418 -0.016018445 0.06613374 -0.043634728
0.044628926 -0.011394099 -0.030005122 0.08356063 -0.041733727 0.058766685 -0.031496175 0.0020505197
-0.05297957 -0.048760924 -0.04806619 0.04977708 -0.044089917 0.026678406 -0.049807593 -0.008711493
0.029878644 0.06254518 0.009974468 0.027095933 -0.0043032845 0.06432141 -0.06094304 -0.077861555
-0.015211403 -0.06390185 0.029509239 0.04825598 -0.0020462035 -0.037971247 0.046622735 -0.05886939
-0.02348403 -0.01608395 -0.014377093 -0.06573793 0.036159042 0.010874874 -0.04608144 0.0103063155
0.02050416 0.002911451 0.02351071 -0.048300646 0.028504943 0.0112555595 0.051984984 0.042140808
-0.05310932 0.02843197 -0.0244018 0.0027205716 0.03316042 0.08565548 0.017703637 -0.012281713
-0.045357972 -0.006181582 -0.01344429 0.007863801 -0.042883974 -0.038384505 -0.0090690665 -0.048816945
0.076801196 -0.052636456 -0.027373584 -0.046129115 -0.059124917 0.034181222 -0.02737523 -0.066918574
-0.039934237 0.051739868 0.020897193 -0.039299786 -0.08433884 -0.0026951926 0.07512923 0.029606044
0.055073716 -0.02919755 0.066973716 -0.039924067 0.04587989 0.030270038 0.072139196 -0.040357526
0.05001876 0.006829368 0.012491109 -0.024657497 0.04008983 -0.032421116 0.0051937983 -0.040301625
0.049809113 0.0077084065 -0.048344433 0.03123533 -0.0044592205 -0.047449272 0.049720116 0.05297342

bias_ih f4 [200]
00000000: 4116 713d 1e95 da3a 3e7e 8f3d 5669 9abc
00000010: 29ae 093d 32e3 903c 7da4 1abb 9ec8 653d
00000020: 6fbc 33bd 8d1d 593d eb60 82bd 0f6e 703c
00000030: 0dfa 6d3d ceff 5b3d 6812 14bd 7283 e1bc
00000040: 0eda 463d b672 983c 39f6 96bd 30df 863d
00000050: c8fa 11bc a789 4dbd 5b2a 1fbd 3f0a dbbc
00000060: c297 4d3d 86aa 38bc fe87 aa3d 47b5 45bd
00000070: 2d5c efbc 4c5e af3c c0ec 423d 5821 37bd
00000080: d3d0 36bd 5f5f f5bb d7e5 a2bc bccc 4cbc
00000090: e4ce 513d 2bd8 813d 23dc 9f3c c41e fbbc
000000a0: 189b 0c3d 9a74 5b3d 1e64 293d ad2e 73bd
000000b0: ca71 acbc 5cde e7b9 f4fd 4ebc 9f2c 39bd
000000c0: e006 243d ce31 76bd 94a8 1dbd 034f 8e3d
000000d0: 2f37 4abd 513b 8c3d 4739 863d 22ac 863c
000000e0: 22d3 6dbd 0302 753d d772 893c d9f2 153d
000000f0: e58f c93c c82d e63c 2e96 1fbd 072d 9b3d
00000100: 2873 8fbd 7ed5 8bbd 3902 983d 43cc 533d
00000110: 0cbc 9cbd 48c2 19bd 29aa 8a3b fb5f afbb
00000120: 36e3 133d 9c01 11bd e206 d5bb e12b 5dbd
00000130: 15ff 40bc f620 9fbb 5afa 5cbd d839 c2bc
00000140: b4aa 31bc ddd8 863d d09c 8bbd 13fa 9f3c
00000150: ba84 77bd bd1a 21bd 1e6b 3d3d 736d 503d
00000160: f0d0 5e3d 58ca 9b3d 8b08 ad3b e7a8 7ebd
00000170: 2be8 2abd b86a 52bc cf99 29bd 1495 fbbc
00000180: 1c2b 05bd 2d31 49bc e6ac a43b cad2 29bd
00000190: 1319 71bd 7ee3 dd3c ebe3 76bd 6be3 a43b
000001a0: 0d0c 823c d9d8 1ebb 4711 1bbd 888a 8d3d
000001b0: 676d 943d 24cb f3ba 470d 6b3d a152 133d
000001c0: 378c 46bd 6695 9bbc 4f0f 153d 9396 8b3d
000001d0: 462e 1c3d 5a3b 4f3d fd33 23bd 3d34 a23c
000001e0: 8934 733d 5eb1 ae3c bae7 2cbd 7bb3 2d3d
000001f0: afa5 7cbc b5b5 2bbd 6c58 caba 2af3 323d
00000200: b90f f23c 9a2e 6f3d 146a 033d 9c22 613d
00000210: 214e 58bd cb53 6b3c cc78 2abc 2e7c 873d
00000220: 3311 163d ac3d aa3c 5db4 383d ce90 3dbb
00000230: 07fb 593d 8652 5cbd fb26 05bd 30c4 333d
00000240: e842 a03d 835c 43bc 6108 67bd 04ac 52bd
00000250: 764e 0abd 0da5 91bc 2b01 2dbd 487a dabc
00000260: efdb 3dbd 3563 b93b 3d5c a0bc e4eb 6bbd
00000270: d324 4d3d b480 ab3b f012 fbbc b510 143d
00000280: ec77 c73c bfa9 8b3d 00db debc 971a 783b
00000290: a6de 423b 2d48 9e3d cf3a 53bd e204 d2bc
000002a0: 929e 90bd 5a73 2e3d 2544 f63c 1a58 c63c
000002b0: a9b0 30bd a00f 0fbd 32e1 0bba fc90 bf3c
000002c0: 3783 acbb cb56 aebb d091 2f3d 5de2 4a3d
000002d0: 9fbf fd3c c4c1 903c 82ea 833d ccb7 413c
000002e0: ff88 64bb 4d5f 5c3d 9185 593c 78d3 d83c
000002f0: 751d 40bd b3bd a5bd da9a 31bd acb3 ed3c
00000300: 86e1 63bd 187d 4c3d 952b 79bd 6354 ca3c
00000310: dade 0fbd d805 803d db13 553b 084f 883c
0.058859114 0.001667652 0.07006501 -0.018849056 0.033613358 0.01768646 -0.0023596578 0.056099527
-0.043880876 0.053006697 -0.06366142 0.0146746775 0.058099795 0.05371075 -0.036150366 -0.027528498
0.048547797 0.018609386 -0.07371182 0.065855384 -0.008909889 -0.050180104 -0.038858753 -0.026738284
0.050193556 -0.011271125 0.0832672 -0.048268583 -0.029218758 0.021407269 0.047589064 -0.044709533
-0.044632744 -0.0074881758 -0.019884987 -0.012499984 0.051222697 0.06340059 0.019514149 -0.030654319
0.034327596 0.053577997 0.041355245 -0.059370685 -0.021050353 -0.00044225424 -0.012633789 -0.04520857
0.04004562 -0.06010609 -0.038490847 0.06948664 -0.049369033 0.06847251 0.065538935 0.016439501
-0.05806268 0.05981637 0.016778393 0.03660855 0.024604747 0.028098002 -0.038961582 0.07576948
-0.07004386 -0.0682783 0.07422299 0.05170847 -0.076530546 -0.037538797 0.0042317105 -0.005352018
0.036105357 -0.035401925 -0.0065010646 -0.053996924 -0.011779566 -0.004856224 -0.05394969 -0.023709223
-0.010843921 0.06584332 -0.06817019 0.019528424 -0.060429312 -0.03933214 0.046244733 0.05088563
0.054398477 0.076069534 0.0052805594 -0.062172797 -0.04172532 -0.012842827 -0.04140645 -0.030710734
-0.032511815 -0.012279791 0.005025494 -0.04146079 -0.058861803 0.027086016 -0.060275953 0.005031993
0.015874887 -0.0024238138 -0.037858274 0.06911188 0.07247429 -0.0018599969 0.05738571 0.035967473
-0.048473563 -0.018992137 0.036391553 0.06815829 0.038130067 0.05059371 -0.0398445 0.0198003
0.059376273 0.02132481 -0.04221318 0.042407494 -0.015420361 -0.041921336 -0.0015437729 0.04368893
0.029548513 0.058394052 0.032083586 0.054964647 -0.052808885 0.0143632395 -0.010404777 0.06615482
0.036637496 0.02078136 0.045093883 -0.0028925422 0.053217914 -0.053789638 -0.032507878 0.04388827
0.07825261 -0.011923912 -0.056404475 -0.051433578 -0.033766232 -0.017778898 -0.042237442 -0.026669636
-0.046352323 0.0056575784 -0.019575233 -0.05759801 0.050083946 0.0052338485 -0.030648679 0.036148746
0.024349175 0.06819486 -0.027204037 0.0037857646 0.002973476 0.0772861 -0.051569756 -0.025637094
-0.07061495 0.042590477 0.03006179 0.024211932 -0.043137226 -0.03492701 -0.0005335986 0.023384564
-0.0052646655 -0.005320405 0.042863667 0.049532283 0.030975161 0.01767052 0.06441213 0.011823606
-0.0034871695 0.053801823 0.013276474 0.026468024 -0.046903092 -0.08092823 -0.04336057 0.029016338
-0.055634998 0.049923986 -0.06083258 0.024698442 -0.035124637 0.062511146 0.0032513055 0.016639248

bias_hh f4 [200]
00000000: 81d7 2d3d 0c09 1dbd f71d 7e3d 30d4 9fbc
00000010: a258 f33c 31aa 3ebd 7165 77bd ef79 9abc
00000020: 9cc1 503d bf52 7bbd b7ba 4bbd ddfc fc3c
00000030: f1b0 8fbc 235c bdbc 7683 d1bc dca5 bf3c
00000040: 2686 303d 0706 7dbb a4de 073d 5f9d 78bd
00000050: 6c60 4abc 578e 573a 5157 06bd 78c6 f43c
00000060: c2ba f83c ae68 c23c 5705 a7bc abde 2a3d
00000070: 5a7a 1b3c 841b e4bc 4475 3bbd 978f 1fbc
00000080: a747 6d3d 1653 87bc e34f d4bc 8c23 5dbc
00000090: 361d a2bb 8d86 f5bc e8c5 38bc 6331 6bbd
000000a0: fa55 463d 7d15 c93a a51b e3bc cfa7 6ebd
000000b0: 9999 5a3c 1cc7 efbb edcf 69bd 07ae 28bd
000000c0: 4e7e f93c 35a6 763d a4ec 0cbd d28a 19bd
000000d0: 0609 d1bc 9152 32bd 9be2 6bbd bc4e 0e3d
000000e0: 4426 49bd dee6 3038 d7ca 2ebd 05ea 1fbd
000000f0: b366 a6bc eeb0 0fbd faec 69bd 654e acbc
00000100: 00f1 45bc 72cd c1bc 5544 ce3b f40e d73b
00000110: 2a33 1ebd be2e 343d c2ae 9cbc 242b 0cbc
00000120: 71b6 f03c 79f4 7b3d 68cb 7abd 105a 04bd
00000130: 2d47 573d af2e da3c 317a 61bd 5913 713d
00000140: fb82 e1bc 64e9 3a3d 64ce e23c d788 d7bc
00000150: ad0e 813d 6b4d b4bc 1ad7 113d 9ff2 c5bb
00000160: a835 ca3c be6c feb9 0326 d5bb 1b74 85bc
00000170: a60c e5bc af30 12bd 18cd 343c 54ae 5f3c
00000180: a6f1 4dbd c69c ddbc b6e8 803b ff06 64bc
00000190: f2b9 92bd c4c5 d1bc a68e acbb 2c99 243c
000001a0: 7e7c 143b 47f5 71bd 9726 ffbc 1ce6 fa3c
000001b0: 9a40 ac3c d660 ab3a 2109 bcbc b5c7 8aba
000001c0: 6539 2e3d acdd b9bc 0084 703c 4ec3 6d3d
000001d0: 77cd 8a3d 7eec 3abd cd1e 6e3d 3d86 893d
000001e0: 464a 68bb e8fe 1e3d a019 40bd 7e8e edbc
000001f0: 48ed 6a3c 358b 51bd 94ee f73c e11b 813b
00000200: aafc 763b f077 8b3d 7f7c 993c 6f1e 7abd
00000210: bffe 95bc df06 e4bc 2f18 863d da42 8bbc
00000220: 5933 3dbd e169 663c 7029 73bb 9142 323d
00000230: 038d 5fbd ceaf 253d 3d74 78bd f2e5 3ebd
00000240: 6567 a13c 7cc3 593d 55cf 0b3d bc38 7cbd
00000250: 52b1 99bc ef72 6c3d 9b26 643d de98 403d
00000260: f767 c63c 35e4 e2ba 557a 98bc fa6b b0bb
00000270: c15b a33c 6d26 863a fe21 303d a43d 833d
00000280: 4d5e 2ebd 78a6 0ebd 9f8d 8d3d 6f50 823d
00000290: b284 283d 5c75 8e3d e526 cb3c 85d0 58bb
000002a0: c4b2 8a3c e168 a9bc 0008 61bd d63e 373d
000002b0: ad61 04bd 5e83 0e3d be06 59bd 0470 2ebd
000002c0: 899b a73c d01a 94bd 2cef 93bd b88c a33c
000002d0: c37c f7bb 5650 913d 7a37 933d aa10 a3bc
000002e0: 1e3a 59bd e57f 7c3c 1b16 063d ec7d 6b3d
000002f0: d903 3e3d 1beb 583d ec3e 08bd c6f8 8d3d
00000300: eec1 873d f101 8fbc 6c69 82bd 2682 683c
00000310: df24 833c 5f41 bb3c 0278 873c b270 c7bc
0.04244185 -0.038338706 0.062040295 -0.019510359 0.02970535 -0.046549026 -0.060399476 -0.01885697
0.05096589 -0.06135821 -0.049738612 0.030882293 -0.017540427 -0.023115223 -0.02557538 0.023394518
0.043096684 -0.003860833 0.03317131 -0.060696956 -0.01235209 0.00082228094 -0.032798115 0.029879794
0.03036249 0.023731556 -0.020388288 0.04171626 0.00948962 -0.027845152 -0.04576613 -0.009738824
0.05792966 -0.01651911 -0.025917 -0.013497245 -0.00494733 -0.029971385 -0.011277653 -0.057420146
0.048421837 0.0015341487 -0.027723143 -0.058265503 0.013342285 -0.007317437 -0.05708306 -0.04118159
0.030455735 0.0602171 -0.034405366 -0.037485905 -0.025516998 -0.043535773 -0.057589155 0.034743056
-0.04910876 4.217668e-05 -0.042673912 -0.039041538 -0.020312643 -0.035080843 -0.057110764 -0.021033475
-0.012081385 -0.023657534 0.006294767 0.006563062 -0.038623013 0.04398989 -0.0191263 -0.008555207
0.02938387 0.061512444 -0.06122914 -0.032312453 0.052558113 0.026633589 -0.05504817 0.058856342
-0.027528277 0.045632735 0.027686305 -0.026310368 0.06301627 -0.022009572 0.035605527 -0.0060408856
0.024683788 -0.00048527675 -0.0065047755 -0.016290715 -0.027960133 -0.03569096 0.011035226 0.013652403
-0.050279282 -0.027052294 0.0039339913 -0.013917684 -0.071643725 -0.025606997 -0.0052660285 0.010046285
0.002265721 -0.059071805 -0.03114633 0.030627303 0.021026898 0.0013075124 -0.022953572 -0.0010588082
0.042535204 -0.02268871 0.014679909 0.058047585 0.067774706 -0.045635693 0.058134843 0.06715057
-0.003544466 0.038817316 -0.046899438 -0.02899861 0.014338799 -0.05115815 0.03026513 0.003940091
0.003768722 0.06809986 0.018736122 -0.06106418 -0.018309949 -0.027835308 0.065475814 -0.01699965
-0.046191547 0.014063329 -0.0037103556 0.043520514 -0.05457784 0.040450864 -0.06065773 -0.04660601
0.019702623 0.053164944 0.034133274 -0.061577544 -0.01876131 0.057726797 0.05570088 0.047020786
0.024219496 -0.0017310443 -0.01861302 -0.0053839656 0.019941213 0.001023484 0.043001167 0.064082414
-0.0425704 -0.034826726 0.06911778 0.06362998 0.041142173 0.06955978 0.02479882 -0.0033083272
0.016930945 -0.020679893 -0.05493927 0.04473766 -0.032319713 0.03479325 -0.052984945 -0.042587295
0.020459907 -0.072316766 -0.07223353 0.01996456 -0.0075527146 0.07095401 0.07188316 -0.019905407
-0.05303394 0.015411352 0.032735925 0.057493135 0.04639039 0.05295859 -0.033263132 0.069322154
0.06628786 -0.01745698 -0.06367764 0.014191186 0.016008792 0.02285832 0.016536716 -0.02434573

weight f4 [4, 200]
00000000: 0cbc d9bc dfd3 4a3d 9cc9 f43c 9849 2c3d
00000010: 641a 3d3d 778c bd3c 4b5d 7fbd 8d92 28bd
00000020: 1acc 88bc 3603 49bc c134 8dbd 5cbc 683c
00000030: 2bbd 7abc b040 56bd c4fa 503d cdda 673d
00000040: 08d5 233c 894b 57bd 6342 2d3d 7215 50bc
00000050: 21bd 8ebd 4a36 973b 5f7f 62bd 929b 54bd
00000060: f1dc 12bc b67b 1fbd 9003 11bd 247e 153c
00000070: 7d16 2dbd 6a62 07bd 8779 e8bc a138 773d
00000080: af16 8fbd 3199 4a3c 7071 80bd abde acbd
00000090: eac5 80bd 266e 5fbd 32db 893c 4774 373d
000000a0: a40d 8e3d 7e3b 96bc 71ac e2bc 747b 223c
000000b0: 2ad8 79bd b3f6 2cbd e7f9 553c c093 6bbd
000000c0: 14d6 56bb a73c 9bbc 036b fc3c 9628 a53c
000000d0: d47c c8bc c479 923d d6c1 90bd 8e32 af3d
000000e0: bbeb 5cbd 1c19 183d 3d77 84bd d9f8 60bd
000000f0: a012 413d 1755 9dbd 6f96 39bd 68cd 643c
00000100: df39 05bd 0157 b0bd d57c 8c3c 9be4 5abd
00000110: a9d9 1dbd 757f 333d 50c7 233d 11e6 643d
00000120: fbfa 853d c2c6 4abc 79c3 14bd b828 9b3d
00000130: 60b7 69bd 09d2 0b3c 67b8 45bd 5208 28bd
00000140: bd36 4e3d 1806 83bc e7da 5a3d db7d 08bd
00000150: 1aa1 833d 52ba 34bd 4889 1e3d cd50 693b
00000160: 26b2 70bc 3ea2 103d f394 d13c fc9d 3dbd
00000170: 54bd e9bb cb97 67bd 78b4 8dbc 3103 e7bc
00000180: bec0 013d fe5d 273d c310 dcbb 85ec 73bd
00000190: 759d b9bc c706 30bd 25ad 8bbc 5f71 a13b
000001a0: 60c1 37bd 5f2a 71bd f24d cd3c 8375 7abd
000001b0: 42b1 36bd 362d 733d 1b60 24bd 3611 73bd
000001c0: 3791 793d 4397 80bd fb95 fcbc 27ac e23a
000001d0: 94bb 213d a64c 89bd 1485 20bc caa0 2abc
000001e0: 80a7 5b3b f059 1e3d 1c41 aebc 7ae5 413d
000001f0: 3216 bf3b 217d 7ebc 84ff 8dbd dd21 7e3d
00000200: 56b0 93bc 323f c2bc ec10 65bd 4209 903d
00000210: d77e 1cbd d708 36bd a547 61bd a24e 81bc
00000220: 5e2f 543c 7631 6bbd 9983 ca3c a9aa 623d
00000230: 0361 223c cff5 89b9 e9f0 f73c d36e 1d3d
00000240: b4ab 7a3c d33a a43d 1a7f d5ba 10d9 62bd
00000250: f03b b9bc b63b fcbb eddc 8dbb 910a 6dbd
00000260: 9ea9 6ebd f5c5 443d 0f09 533d d8f2 b1bc
00000270: 0c76 013d 704d 283b 9cfd 7ebd c751 4f3d
00000280: aa5c 9dbc 86de 143d 67b8 62bd 4436 c7bc
00000290: e410 67bd 1520 863d addd 463d 0a5c aa3b
000002a0: b49f 913d 040c 52bd b9f4 373d 9ded 46bd
000002b0: d46b ebbc 6d9a 17bd 6db9 803c 778e 29bd
000002c0: 84b8 f13c 0d97 803c 815f 203a 1a5f 7d3d
000002d0: 0f70 5a3d f7ed 4bbc 0936 8dbd 2990 73bc
000002e0: e3e3 4f3d 9670 2e3d 2fd1 7dbc 3aae cdbb
000002f0: 80c7 8dbd b454 f6bc 7657 74bd d781 4a3c
00000300: a0e5 73bd 69a4 5cbc 821b 913d eede 183d
00000310: 40b2 81bd b561 a13d f6a9 613d a69c 5f3c
00000320: a8e0 593b 877d 4abc a219 90bc 2c4f 17bd
00000330: 0369 93bd 62cf 27bd 7544 7fbc 98b9 4e3d
00000340: aab6 21bc ac57 623c 027c b63c dc97 d73c
00000350: 542c 33bd 79b9 fcbc a32c 263d 6845 9ebc
00000360: 801b 453c 2b19 d83c 8073 1e3d 200f 4dbd
00000370: 3337 12bc 4d8f 8c3d 54cc d8bc a138 73bd
00000380: 83e9 943d 0a76 923a b882 7b3d f661 903d
00000390: ef81 61bc 7b0a 8ebd 6d9d 243d a740 403d
000003a0: b747 d1bc f971 84bd 2b09 b53c a6d4 e5bc
000003b0: c029 b03c c4bd 20bd e303 26bd 0974 84bd
000003c0: 148c c9bc 5adb 48bd 2edd bcbc e65f 97bd
000003d0: 0b60 dab8 8ed7 5dbd 857c 063b e8fb 883c
000003e0: cf58 353d ef23 27bd d5d0 8f3d d8e3 5fbd
000003f0: 44fd bf3c 4ceb 153d bdba a03d 81bb 50bd
-0.026578926 0.049518462 0.029881291 0.042062372 0.046167746 0.023138268 -0.06234483 -0.041155387
-0.016698886 -0.012268832 -0.06894828 0.014205065 -0.01530389 -0.052307785 0.0510204 0.05660515
0.009999521 -0.05256227 0.04229964 -0.012700425 -0.06969667 0.004614626 -0.05529725 -0.051906176
-0.008963809 -0.03893634 -0.035403788 0.009124313 -0.042257775 -0.03305284 -0.028378261 0.06035674
-0.069867484 0.012365625 -0.062716365 -0.08440908 -0.06287749 -0.054548405 0.016828153 0.044788625
0.069361955 -0.018338915 -0.027670117 0.009917129 -0.060997166 -0.04222746 0.01306007 -0.057513952
-0.003278141 -0.01894982 0.030812746 0.020160954 -0.024473585 0.07152131 -0.07068221 0.085545644
-0.053935748 0.03713332 -0.064680554 -0.05492482 0.047136903 -0.07682245 -0.04530948 0.013964988
-0.032525893 -0.08610345 0.017149368 -0.05344067 -0.038537655 0.043822724 0.039985 0.05588347
0.06542011 -0.012376489 -0.03631923 0.07576126 -0.057059646 0.008533963 -0.048271563 -0.04102356
0.05034517 -0.015994117 0.053431418 -0.03332315 0.06427212 -0.044123 0.03870514 0.003560114
-0.014690911 0.035310976 0.02558372 -0.046293244 -0.0071331654 -0.056541245 -0.017297968 -0.028199764
0.031677954 0.040861122 -0.0067158653 -0.059551734 -0.02265809 -0.042975213 -0.017050335 0.004926845
-0.04486215 -0.0588783 0.025061581 -0.061147224 -0.04460264 0.05936929 -0.040130716 -0.059342586
0.060929503 -0.06278851 -0.030833235 0.0017293737 0.03948553 -0.06704073 -0.009797353 -0.010414312
0.0033516586 0.03865999 -0.021271281 0.047337987 0.0058315033 -0.015532763 -0.06933501 0.062044013
-0.01802842 -0.023711774 -0.05592434 0.07033016 -0.0382069 -0.044442024 -0.054999966 -0.015784565
0.012950746 -0.057420217 0.024720954 0.055338535 0.009910825 -0.00026313818 0.030266242 0.03843577
0.015299726 0.08019032 -0.001628849 -0.05538279 -0.022611588 -0.007697548 -0.004329315 -0.057871405
-0.05826723 0.04804035 0.05152231 -0.021722242 0.03160672 0.0025680922 -0.06225358 0.0506151
-0.019209225 0.036345027 -0.05535164 -0.024317868 -0.056412593 0.06549088 0.04855125 0.00519896
0.07110539 -0.05128099 0.04491112 -0.04856645 -0.02873794 -0.037012506 0.015713418 -0.04139563
0.02950693 0.015697027 0.0006117747 0.061858274 0.053329524 -0.012446872 -0.06895072 -0.014865913
0.05075444 0.04258784 -0.015491768 -0.006276873 -0.06922817 -0.030069686 -0.05965372 0.012360058
-0.05954516 -0.013466933 0.07085325 0.037321977 -0.063328266 0.07879964 0.055093728 0.013648188
0.0033245478 -0.01235903 -0.017590348 -0.03694074 -0.07197764 -0.04096926 -0.015580286 0.050469965
-0.009870211 0.013814848 0.022275928 0.02631753 -0.043743446 -0.030850159 0.040569913 -0.019320205
0.012030482 0.026379189 0.038684368 -0.050063252 -0.008924293 0.0686327 -0.026464619 -0.059380177
0.07271101 0.0011174094 0.06140396 0.070499346 -0.013763889 -0.06935593 0.040189195 0.046936657
-0.025546892 -0.06467051 0.022099098 -0.0280555 0.021504283 -0.039243475 -0.04053105 -0.064674444
-0.024602927 -0.049037315 -0.023054685 -0.07391338 -0.000104129394 -0.054160647 0.0020520997 0.01672168
0.044274148 -0.040805753 0.070222534 -0.054660648 0.023436196 0.03660135 0.078481175 -0.050960068

bias f4 [4]
00000000: 7f62 88bc aa66 47bb c9a0 e1bc 9ada 49bd
-0.01664853 -0.0030426183 -0.027542489 -0.04928074
